training_part/spelling_correction/saved_model_2/char2vec.pth (torch, 147416 bytes, 8 tensors)

lstm1.weight_ih_l0 f4 [200, 27]
00000000: 1499 02c0 575d 883f 61f4 ab3e 42e2 003e
00000010: 2709 0ec0 1d48 83bf de20 73bf 2c8b 59bf
00000020: 5ab5 d1bc fbd5 a53f d9d5 56bf b43c a3bf
00000030: eff2 94bf 1054 62bf bed2 713e 5781 cf3e
00000040: 071a 7ebd e701 0d3f 69a3 123f 1f7a e2bf
00000050: b70e 3bbf ce7b ab3f b606 ffbe ac42 88be
00000060: ac5c 9e3e 25c0 a2be 0555 0fbe 23b1 c63f
00000070: 7154 20bd b7f5 9dbf 1ae2 353f 8772 99bf
00000080: 0aa7 87bf 07fd 2f3f 89cd efbf 16ce 87bf
00000090: af72 93bf c138 95bf 8bf9 f2bf 47d8 babf
000000a0: d4f9 dbbe a4dc 92bf 1443 2abf 647b dc3c
000000b0: 475b 39c0 678e 8bba 9596 e0be eefb 80bf
000000c0: e82a 73bf 5f27 be3e f0aa c6bf a56f 00c0
000000d0: 1a67 a8be 6d72 c4bb cdbd 10c0 ddf5 6fbe
000000e0: 72a5 0cbd 3f99 8a3f 317b f8bf 0a3c f7be
000000f0: 7bf9 1bbf 1127 2d3f f2c4 e3be a187 113e
00000100: 553d 4cbf f630 2dbf d774 86bf 94ad 0dc0
00000110: 84b9 f5bf f04e f0bd 50d6 cc3b 0981 03bf
00000120: ef83 093f c954 bf3e e1f8 8dbf 0e21 97bf
00000130: 0204 833f 7895 5c3d 33bc 8dbf 746e 05bf
00000140: 7a19 80bd 7e90 863e 5cad 5fbf 22d5 1ac0
00000150: abba 97be 606e bf3e d04f f6bf 46e2 adbe
00000160: 26fa 37bf 0e52 51bf c29f a2bf 0759 eebd
00000170: 20c0 12c0 680e c0bf ac4d 2c3e d24a aa3f
00000180: 5b83 c93e 2897 463f 768b 04bf a55b 5ebf
00000190: 0a3d 5bbf 69c1 1fc0 84c8 b6be b103 bc3e
000001a0: 2dd3 283f e55f 113f c5b0 e23d 3c29 ae3d
000001b0: b4b8 aabf 6d2c c03e 0e22 8bbf d1de bcbf
000001c0: 5c2b c5bf 3e97 a33f 61fb 45be d55d a6be
000001d0: a328 97bf ebbb b8bf 0886 b6bf dc9e c93d
000001e0: 337b 813e 5f58 c6be 7a4a 82bf 375b b83f
000001f0: e380 c5be ae6f a3bf 0368 8dbf b8cc cb3e
00000200: 1db1 cf3e b989 60bf 512c 00bf 130c 66bf
00000210: 0922 473f 2383 6bbe c84b f4bd c4cb 433d
00000220: 4e00 333f 95f7 51bf 96d2 9ebf 54d8 edbf
00000230: 96b2 d73e bcc0 c83d ac8c 91be cd1d ddbf
00000240: 90de 77be 366c 793f e870 aebf 6f5e 22bf
00000250: 1689 123d 4c5d 82bf a50d 29be f7b5 98bf
00000260: ef5e 00bf 012e abbd 29f3 a8bf b1f4 093f
00000270: b34a 46bf 8330 953f f758 52be 4eb4 8bbe
00000280: 84bf 0e3f 4d84 d83c 204f aabe f37f 5abe
00000290: 8d9f b8be de6c 4dbe ad66 c13e 14d3 acbe
000002a0: 84de 0b3f 59fd fabe ac64 05c0 ef6c 78be
000002b0: f471 df3e d3a5 c8bf 7035 783e b0ae 553f
000002c0: 3bb9 03c0 a07a 803d 64db ecbe bd5d 3e3f
000002d0: 57a8 0d3f 08aa e3be bea9 3abd 95c6 41bf
000002e0: fd1d 21bd 4f7b 7d3f 43c8 523f 7259 553f
000002f0: e517 36bd a347 c13c bbc9 82be f66a fcbf
00000300: e7a8 01c0 dc57 e8bf ad90 a2bf e188 283f
00000310: 6819 f8bf 0fa4 c1bf 1feb 9bbe 7435 81bf
00000320: e698 c63e fd08 7cbd dfcc f8bf c156 1bbf
00000330: 7004 93be 504c 283f a79e 04bf 48bc 95bf
00000340: 7ef9 cf3f 6145 4d3f a120 88bf e2db 8f3f
00000350: 2fbd 78bf 6133 ac3e 7f5f 733e b5dc d63d
00000360: 414c 8e3e b1f5 8cbe 1707 fdbf cbfb 08c0
00000370: ec39 a7bf 4bfd b63f 7d1f ffbe 0668 a6be
00000380: 3b1a cfbf b852 44be eee6 9d3d 2701 87bf
00000390: 56ad 2fbf 691f 273e 75cf 89be 0865 4f3d
000003a0: a085 263f b22b 8fbe 3065 b1bf 1bff 1bc0
000003b0: a6ff d53e 80b6 893e 996d 023f affe 233f
000003c0: e6f2 56bf ca2f 1ebf d203 b73d 2a0e 5ebf
000003d0: 0002 653f 2c28 f43e e43e 4abf 17e3 f1bd
000003e0: ec76 afbe d8c5 0a40 b8ca 38bf 4843 843e
000003f0: 7f01 d5be 166a d43b dc70 0e3f 99f4 e8bf
-2.0405931 1.0653485 0.33584884 0.1258631 -2.2193086 -1.0256382 -0.94972026 -0.84977984
-0.02559917 1.2955927 -0.83920056 -1.27529 -1.1636637 -0.8840952 0.23615548 0.40528366
-0.06203654 0.5508103 0.57280594 -1.7693518 -0.7306933 1.3397157 -0.49809808 -0.26613367
0.30930078 -0.3178722 -0.13997276 1.5522808 -0.03914303 -1.2340611 0.7104813 -1.1988076
-1.0597851 0.68745464 -1.8734599 -1.0609767 -1.1519374 -1.1657945 -1.8982404 -1.4597253
-0.4296404 -1.1473584 -0.66508603 0.026914306 -2.8961961 -0.0010647298 -0.43864885 -1.0076883
-0.94987345 0.37139413 -1.5520916 -2.0068142 -0.3289116 -0.005995086 -2.2615845 -0.23433633
-0.03433747 1.0828017 -1.9412595 -0.48287994 -0.6092755 0.67637736 -0.44486195 0.14211895
-0.79781085 -0.67652833 -1.0504407 -2.2137194 -1.919724 -0.11733806 0.006251134 -0.5136877
0.5371694 0.37369373 -1.1091577 -1.1806962 1.0235598 0.053853482 -1.1073059 -0.52121663
-0.06254859 0.26282114 -0.873739 -2.4192586 -0.29634604 0.37388897 -1.9243107 -0.33961695
-0.7186607 -0.8176583 -1.2705004 -0.11638074 -2.2929764 -1.5004396 0.16826504 1.3304083
0.3935803 0.77574396 -0.517753 -0.8685859 -0.85640013 -2.4961798 -0.35699856 0.36721566
0.6594723 0.5678695 0.11068872 0.085039586 -1.3337617 0.37533894 -1.0869768 -1.4755498
-1.5403857 1.278053 -0.19334175 -0.32493463 -1.1809276 -1.4432348 -1.4259653 0.09844753
0.25289306 -0.38739297 -1.0178978 1.4402837 -0.38574895 -1.2768457 -1.1047367 0.39804626
0.40564814 -0.8771015 -0.5006762 -0.89862174 0.7778631 -0.22999243 -0.119285166 0.047801748
0.6992234 -0.82018405 -1.2408016 -1.8581643 0.42128438 0.09802386 -0.28427637 -1.727472
-0.24205995 0.9743074 -1.3628206 -0.63425344 0.035775267 -1.0184722 -0.16509111 -1.1930531
-0.5014486 -0.08358384 -1.3199207 0.53888994 -0.7745773 1.165543 -0.2054175 -0.27286
0.5576098 0.026430273 -0.33263493 -0.21337871 -0.36059228 -0.20061061 0.37773648 -0.3375479
0.54636407 -0.49021414 -2.0842695 -0.24260305 0.43641627 -1.5675606 0.24239135 0.83469677
-2.0581806 0.06273389 -0.46261132 0.74361783 0.5533499 -0.4446566 -0.045572035 -0.7569364
-0.03933524 0.9901628 0.82336825 0.8333961 -0.04445638 0.02359373 -0.25544533 -1.9720142
-2.025934 -1.8151813 -1.2700402 0.6583386 -1.9382753 -1.5128192 -0.3045282 -1.0094438
0.38788527 -0.06153201 -1.9437522 -0.6067925 -0.28714323 0.65741444 -0.51804584 -1.1698084
1.6248014 0.8018399 -1.0634958 1.1238978 -0.9716367 0.3363295 0.23766898 0.10491315
0.27792552 -0.27531198 -1.9767789 -2.1403682 -1.3064551 1.4296049 -0.4982871 -0.3250124
-1.617988 -0.1917218 0.07710062 -1.0547227 -0.68623865 0.16320576 -0.2691609 0.05063346
0.65047646 -0.27963024 -1.3859005 -2.4374454 0.41796607 0.2689705 0.5094848 0.6406049
-0.83964384 -0.6179167 0.089362755 -0.8674036 0.89456177 0.476869 -0.79002213 -0.11810892
-0.34270418 2.1683254 -0.72184324 0.25832582 -0.41602704 0.006482373 0.5564096 -1.8199645

lstm1.weight_hh_l0 f4 [200, 50]
00000000: 8827 b43d 5b1c d7be b342 4dbf e620 db3d
00000010: a127 32bf 7383 03bf e285 023e 8e97 f73e
00000020: ab72 1d3e d478 dc3c b1d5 35be e614 a9be
00000030: 2716 5bbe 9176 aebc 91d0 5abe 3326 4f3e
00000040: e483 233f 74ed c93e b4f5 423f db7b b6be
00000050: 3aa8 813e 977f a5be f7e8 dbbe f005 aa3e
00000060: a980 d23e c502 163f 7608 cb3e b4bb 54be
00000070: b707 933e 1d39 93be d864 99bb 7f0f c63e
00000080: ea27 dabd 00d3 c63c 59f5 803c c0f5 b33e
00000090: f791 ed3e 582a 05be 909d 8fbd 9733 673e
000000a0: 64c2 cbbe 1ced 4f3f d28d 133d a94b 92bf
000000b0: 8273 be3d 5bb1 ba3e 97e9 a3be 2622 a3bd
000000c0: e6a3 123e b502 40be 5533 553e b8e7 25bd
000000d0: 9b39 e23e 8891 e23d c4de 803e 55e8 63bf
000000e0: 3d56 d83e bf59 44bf 8c53 873f 9f2c ef3e
000000f0: adda afbe 4adb dd3e 57e6 36be f36c 51be
00000100: bf98 27bf adec 293e 8af0 7a3b be62 d93e
00000110: f87a c1bf d070 803d a7b7 9e3e 39c7 39be
00000120: 95cd 7cbe 4ed6 93be ceda ec3e 0339 e63e
00000130: c88c 0f3f 5152 963d 5849 9a3e fa17 1e3f
00000140: 960a 8b3e 06d4 ad3e d357 2ebd 0619 513f
00000150: 9a6c 6c3e 3e0d 643e 5521 523d a9a9 623e
00000160: 00b1 00be c52c 0abf 365d 803e 3170 443f
00000170: 115d 1ebc 8e02 adbd 8987 cd3e e3c6 d4be
00000180: e63c d63e 1740 e5bd 8fde eb3c 0a98 f03e
00000190: 63f2 6abf 162c e1be b8f2 2bbf ed42 34bc
000001a0: 642d 0fbf 403a 96be c99a b63d 5220 fd3d
000001b0: 5735 ecbc 5b71 f8be 9154 dbbd 1fbf 5abf
000001c0: a41f afbe 331d 4a3e 79bc a83e cacd d13e
000001d0: 77dc 193d a68c f83e bea0 4bbe baf1 9abc
000001e0: bc1f 1c3f bda4 c8be 591c 4b3d f57b bc3e
000001f0: 2200 1f3d 922c 803f e4f6 95bd 6560 e93d
00000200: c3dd 3abe d4fc 1abc 6860 a6bd 3102 75bf
00000210: a885 b9be 87a7 1a3f 7c69 a4be 51ad c7be
00000220: f0ec 813f 83b3 b13e 7e35 b2be 726e f03e
00000230: e716 12be 560a 01be 299b 41bf 57f2 583e
00000240: 5f3f 0cbd 101f 613d fe1a 3ebf 3519 b0be
00000250: cb26 7c3c 1922 62be a372 a53e e60b 1e3f
00000260: 773b c33c e730 75bd 2aa3 92be b48e f7be
00000270: 6a8c c73e 761a 00be e108 593e ebec 1b3f
00000280: 7bc4 c33d a6a7 b13e ec99 8ebe db0f 923e
00000290: d223 16be 3dd5 d1be 4203 aa3e 9005 953e
000002a0: 7708 7fbf bb35 00bf c8c3 313e e627 adbd
000002b0: 0970 a5be 278c 3ebf 76f0 c33e 1b99 a23e
000002c0: a88b 98bc 72f7 cebe a274 e83e 06fb c5be
000002d0: 9c0e 1fbe 2c2e 9b3d a79c a8be 5b4c 353e
000002e0: 51ae 853e 89d1 503f eb8e 883e 3415 ed3c
000002f0: 52de aebd 5669 96be d67c 663e 9c54 eb3e
00000300: 9428 8b3e 52b0 e4bb 663c c83e 0962 03bf
00000310: 6a4a 0fbe 4f00 acbd e975 32be 61f9 38be
00000320: 3ee9 5e3d ffd7 14be 15d5 ddbd c653 63bc
00000330: e156 003e 80e3 b7be bd4b 1a3f 2570 f33d
00000340: 1193 fabd 0e3a 8bbd 6525 cebd 2782 073d
00000350: 1369 80bd 8981 5bbd 9306 c73d df58 12bf
00000360: 252a b93e 827d 6d3e 190d f3be 52d4 51be
00000370: b614 11bf 7e36 61be f9ca aebe 021a b53e
00000380: e692 02bf 4c9c bdbe 95d9 85be f84a 013c
00000390: db2c 9c3d 3379 d43e 8147 31be 813a 25bd
000003a0: f2d9 3cbe b8e8 5e3e bff3 113e 5ec7 7abe
000003b0: 0a0d fabd ebb6 bc3d 80e3 0cbd 5931 b5be
000003c0: cd7f bdbe 72e3 c1bd 0e1f 76bd 022f fc3d
000003d0: 7bd5 e73d 5b7e 9fbd da52 c5be bdf0 323e
000003e0: 86c5 33be 84a5 b33e 3edf ce3e 6a96 b639
000003f0: 257f 8d3f bd0f 92be c49a 1b3e 91c3 a23e
0.087966025 -0.4201382 -0.801799 0.10699634 -0.6959172 -0.5137245 0.12746385 0.48357815
0.15375774 0.026913084 -0.17757298 -0.33023757 -0.21395169 -0.021296771 -0.21368624 0.20229416
0.63873124 0.39438975 0.76156163 -0.3564137 0.2532366 -0.32323906 -0.42951176 0.33207655
0.41113785 0.58597976 0.39654893 -0.20774728 0.28716823 -0.2875451 -0.004681211 0.38683698
-0.10652144 0.024270535 0.01574199 0.3514843 0.46400425 -0.13004434 -0.070124745 0.22578274
-0.39796746 0.81221175 0.036023922 -1.142934 0.09299375 0.36463436 -0.32014152 -0.07965498
0.14320335 -0.18751033 0.20820363 -0.040504187 0.44184574 0.11062914 0.25169957 -0.89026386
0.42253295 -0.7669944 1.0572371 0.4671373 -0.34346524 0.43331367 -0.17861305 -0.20451717
-0.6546745 0.16594191 0.0038290345 0.42458147 -1.5115652 0.06271517 0.3099949 -0.18142404
-0.24687798 -0.2887444 0.46260685 0.4496537 0.5607419 0.07339919 0.30134082 0.61755335
0.27156514 0.33950824 -0.042564224 0.8167881 0.23088303 0.22270676 0.05130132 0.22135033
-0.1256752 -0.5397456 0.25071114 0.7673369 -0.009665743 -0.08447753 0.40142468 -0.4155799
0.41843337 -0.11193865 0.028792648 0.46990997 -0.917761 -0.43978947 -0.67167234 -0.0110022845
-0.55928636 -0.29341316 0.08916242 0.1235968 -0.028834028 -0.48523983 -0.10709489 -0.8544788
-0.34203827 0.19737701 0.32956293 0.40977317 0.037563767 0.48544806 -0.19885537 -0.018914092
0.6098592 -0.39188185 0.04958758 0.36813322 0.038818486 1.0013602 -0.07322481 0.11395339
-0.18248658 -0.009459693 -0.08123857 -0.9570647 -0.36234784 0.60411876 -0.32111728 -0.38999417
1.0150433 0.3470727 -0.34806436 0.46959263 -0.14266549 -0.12601599 -0.7562738 0.21186195
-0.034240123 0.054961264 -0.74259937 -0.3439423 0.015390108 -0.2208332 0.32314023 0.61736906
0.023832066 -0.05986109 -0.2864011 -0.4835106 0.38974315 -0.12510094 0.21194793 0.60908383
0.0955896 0.34698218 -0.27851808 0.28527722 -0.14662102 -0.40983 0.3320561 0.29105806
-0.9962229 -0.50081986 0.17359841 -0.08454876 -0.3231204 -0.74432606 0.38269395 0.31757435
-0.01862128 -0.4042316 0.45401484 -0.38668078 -0.15532917 0.07577166 -0.32932016 0.17704909
0.26109555 0.81569725 0.26671538 0.028940775 -0.08538498 -0.2937724 0.22508559 0.4596299
0.27179396 -0.006979027 0.3910858 -0.51321465 -0.1399323 -0.08398496 -0.17427792 -0.1806388
0.054421656 -0.14535521 -0.10831658 -0.013874954 0.12533142 -0.35915756 0.6027182 0.11886624
-0.12235082 -0.067981824 -0.10065726 0.033083107 -0.06270041 -0.05359033 0.09718051 -0.57166857
0.36164966 0.23192409 -0.4747093 -0.2049115 -0.5667223 -0.21993443 -0.3413923 0.35371405
-0.510054 -0.37033308 -0.26142564 0.007891409 0.07625743 0.41498718 -0.17312433 -0.040338997
-0.18442515 0.21768463 0.14253138 -0.24490115 -0.12209518 0.09214576 -0.03439665 -0.35389212
-0.37011567 -0.0946721 -0.06008821 0.123136535 0.11320015 -0.07787772 -0.38539773 0.17474647
-0.17555818 0.35087216 0.40404695 0.00034825812 1.1054426 -0.28527632 0.15195757 0.3178983

lstm1.bias_ih_l0 f4 [200]
00000000: 9b5d d8be f85c 683e e43c 05bf f33e 63be
00000010: 0c71 e1be 6c99 623e 2822 f4be 3dd2 0ebf
00000020: f002 46bf 5efe b9be 32e1 7fbe f274 73be
00000030: a4bd b9be 3865 e2be 28fc 2fbe 88e6 73be
00000040: 9d33 4bbe 26a0 8bbe 5cd7 8dbf c76a d9be
00000050: 522d b2be 6493 293e 3430 68be 60c1 b93e
00000060: de06 40be 98d0 ccbe c6b8 84be aa50 3a3c
00000070: eea5 febd e751 94be b8a0 5dbc bf82 47bc
00000080: 8eaf acbe e21e 0abf 59cb 0cbe 9b2e 18be
00000090: 204f a2be b2c7 9d3d a30c 2cbe d121 b0be
000000a0: 6bc1 05bf bd68 21bf 8e2e 563e a5c4 38bf
000000b0: 1ec1 68bf 9622 8b3d 8a61 5abf 9d0d 98be
000000c0: 25ce 13be dfec c2be 3599 c3bd 45d8 90bf
000000d0: 784c acbd 9a65 fcbe 41cb 49be 214f 17bf
000000e0: b200 bebd c86c 96be 3350 0abf cac4 50bf
000000f0: eea4 ebbe ee7e aebe 65e6 74be 5dde 06be
00000100: ee24 94bf cec2 3bbe 5e93 efbe b4f1 4cbf
00000110: 19c0 0440 46c8 adbd 1530 0ebf da25 44bf
00000120: 277b 81bf 2a1d 38bf f98f 2bbf 663a b8bf
00000130: 48cf 1bbf 8c6c 95bf 4e8b 3d3e 1c04 54bf
00000140: d8e0 09bf fbeb 27bf aa81 bfbe c693 4dbf
00000150: 1302 efbe 47c2 89bf 685b fdbe b3dc a5be
00000160: a14c 1fbf a0ea 813e fb4f 3abf 5ff3 0abf
00000170: 4e46 0ebf 4b26 86be 7b7f 8d3f 8fb9 2ebf
00000180: 3dca 87be a070 71bf 0deb 88bf 023d 1abf
00000190: 272f a4bd 549b ab3e 7486 c63d e4a3 e83e
000001a0: 3beb 16be 9af0 cb3e 5c33 cd3d 20cf 91bd
000001b0: 468e ca3d eb5b 21be e5f1 543d 80ca 3f3e
000001c0: eded 383e 0198 a2bd 2b4e cfbe 3dae 8c3b
000001d0: f810 f0bd dbe9 443e f5fe 0dbf 414d 29be
000001e0: 3843 56bd 9b6a 8cbe 9ef4 ff3d c601 b3be
000001f0: f38a b03e 94dd 05be a3d7 dbbd 2bd9 ef3d
00000200: af82 153f be38 243c 587c cc3d 601e 8b3d
00000210: 9075 b13c b680 8cbe 99c0 20be 3bbc 323d
00000220: 5468 b3be c48f 263e 2d11 243e 9ff7 42be
00000230: f0f0 9cbd 9713 273e a095 c1be fa0a 853d
00000240: bc5c 253e 5ba5 283e 3921 ce3e e38b 483e
00000250: 11f1 64be c26b bb3e da87 15be 2128 703e
00000260: cf50 47bb eefc fabe 2add aa3c a10b f7bd
00000270: f19d 0cbf 4064 f7be 0008 0fbf 8915 8fbe
00000280: 08d0 e1be 093b e9be 18c5 023e 307b 1fbe
00000290: e779 38bf 0630 49be 4c62 80be 2912 95be
000002a0: b8cd 1a3b 5a42 9e3d 0dda d5be 3a78 70be
000002b0: caeb 0abd 9028 3a3e 8ca0 bebe f898 17bf
000002c0: 889b a83d 6c68 83bc 099f 2e3e d940 b0be
000002d0: e209 f4be 29c6 fdbe a2ef 0bbf c34c 03bf
000002e0: 10ad 5fbd 1088 16bf 6be8 3cbe 3282 a0be
000002f0: 182a 3abe 6b60 cfbe e165 fcbe dc80 17bf
00000300: dfd3 dabe f1d7 96bf d06c 0dbf c060 26bf
00000310: 67cb 30bf 5cfc 18bd 3601 59bf 138b c7be
-0.42258915 0.22691715 -0.52046037 -0.22191982 -0.4403156 0.22128838 -0.4768231 -0.5578955
-0.7734823 -0.3632688 -0.24988249 -0.2377508 -0.36277497 -0.4421785 -0.17186034 -0.2381841
-0.19843908 -0.2727062 -1.1081347 -0.42464277 -0.34800202 0.16560131 -0.22674638 0.36280346
-0.1875262 -0.40002894 -0.2592222 0.011371771 -0.12433992 -0.28968737 -0.013527088 -0.012177168
-0.33727688 -0.53953373 -0.13749446 -0.14861529 -0.31700993 0.077041045 -0.16801696 -0.344008
-0.5224826 -0.6305044 0.20916197 -0.72175056 -0.90919673 0.06793706 -0.8530508 -0.29697886
-0.14434107 -0.38071343 -0.09550706 -1.1316 -0.08413023 -0.49296266 -0.19706441 -0.59105116
-0.09277476 -0.29379869 -0.54028624 -0.81550276 -0.4602427 -0.34081215 -0.23916014 -0.13170762
-1.157377 -0.18336031 -0.4679212 -0.8005631 2.0742247 -0.08485465 -0.5554212 -0.76620257
-1.0115708 -0.719195 -0.6701656 -1.4392822 -0.6086316 -1.1673751 0.18510172 -0.8281877
-0.5385871 -0.6559445 -0.37403613 -0.8030361 -0.4668127 -1.0762414 -0.494838 -0.32394943
-0.622263 0.25374317 -0.7277829 -0.54277605 -0.55576026 -0.2620109 1.1054529 -0.6825189
-0.26521483 -0.9431248 -1.0696732 -0.6024934 -0.08016806 0.33516943 0.09693614 0.4543754
-0.14738171 0.39832002 0.10019562 -0.07119584 0.09890418 -0.1575772 0.0519885 0.18729591
0.18059511 -0.07939149 -0.40489325 0.0042932318 -0.117219865 0.19229834 -0.5546716 -0.16533376
-0.0523102 -0.27425084 0.12497829 -0.3496229 0.3448101 -0.13072807 -0.10734489 0.117113434
0.5840253 0.010023294 0.09984654 0.06792903 0.021662503 -0.2744195 -0.1569847 0.04363654
-0.35040534 0.1626578 0.16022177 -0.19039772 -0.07663143 0.16316067 -0.37809467 0.06496234
0.16148657 0.16469328 0.40259722 0.19584613 -0.22357585 0.3660565 -0.14602605 0.23452808
-0.0030413156 -0.49021095 0.020857412 -0.12062765 -0.549285 -0.48318672 -0.5587158 -0.27946118
-0.44104028 -0.45552853 0.12770498 -0.15574336 -0.7206101 -0.19647226 -0.25074995 -0.29115418
0.0023621153 0.07727499 -0.41767922 -0.23483363 -0.033916272 0.18179536 -0.37231863 -0.59217787
0.0823279 -0.016041003 0.17052855 -0.34424475 -0.4766379 -0.49565247 -0.54662526 -0.51289004
-0.054608405 -0.58801365 -0.18448035 -0.3134933 -0.1818012 -0.4050325 -0.49296477 -0.59181
-0.4273977 -1.178465 -0.5524416 -0.6499138 -0.6906037 -0.037350044 -0.8476747 -0.38973293

lstm1.bias_hh_l0 f4 [200]
00000000: fa79 07bf f759 963e c484 a1be 92ae 71be
00000010: c779 97be 1597 913e 689b fabe 1d44 3dbf
00000020: 4b8f 06bf 649c a8be 09cd c4be d0fc 49be
00000030: 24de 9fbe 42c1 dabe e86e 49be 417e 90be
00000040: a7ba 7dbe bd41 f4bb bf86 8bbf 7a7d bbbe
00000050: 9da9 6cbe fea9 3f3e c82d ebbe 3b23 c13e
00000060: 312b 4abe 4be0 9fbe 91d6 58be 767b c03d
00000070: c075 723b ddf9 adbe e91b 8ebb 0b36 203d
00000080: e307 d9be bd38 0abf 4371 2cbe 1baf 95be
00000090: 3666 8ebe 84c0 e5bd c2ad 89be 5abe ecbe
000000a0: 1ac8 c3be ec02 32bf 5e1a 633e 4998 53bf
000000b0: ac7b 35bf 5de7 f6bc 2bfd 65bf 3477 b4be
000000c0: eb99 72be a2a5 66be 4438 9ebe 3d9b 96bf
000000d0: 8a6f 55be 7360 eebe 751c 663c 8fb9 17bf
000000e0: 1570 46be 41fd f4bd 2949 12bf 72e1 33bf
000000f0: 5c03 e6be d42c bfbe 98cb 1abe 3ee5 05bc
00000100: 827c a8bf ce21 2fbe d5fe 06bf c49c 1dbf
00000110: 74bf 0740 a98d 9abe 0d5c e6be 31f8 41bf
00000120: 1fa0 66bf 64ec 0dbf 47ae 12bf 02d5 bdbf
00000130: bc41 50bf fca8 94bf 8905 163e b8d2 27bf
00000140: 9c54 13bf 46b8 2abf df13 46be 89bb 5fbf
00000150: c5ae 71be 67bb 72bf bea1 dcbe 0c88 57be
00000160: 54e3 28bf 16f1 523d 7c80 36bf 158a 39bf
00000170: 447a 14bf df7b 90be 8ef6 8d3f 0183 35bf
00000180: bf28 e9be ff8a 33bf 8f2d 84bf 7dbb 25bf
00000190: 1ac4 063c c17e 143e 34a1 f6bd dc66 a83e
000001a0: e491 16be adef df3e e449 a13d 76f3 053e
000001b0: fdab ce3d 7d88 23be b562 c4bd 5913 443e
000001c0: 4c89 a83e 73df c6bc 5602 e3be 9629 223e
000001d0: b9b5 923d 34c7 7c3e ec7f 1dbf d091 a7bc
000001e0: e1c0 64bd 2002 34be c383 5ebd 5b3a f2be
000001f0: be3a 953e 1757 f5bd 68d4 7fbc 42bb 683e
00000200: de3b 153f b3e9 3fbc c1e9 823e 2765 d33d
00000210: ba89 39be c48e 55be cddc 14be fd5c a23d
00000220: 4669 a1be 7a09 a33e 638c 0e3e 79fb 74be
00000230: a271 35be b057 1a3e a4aa 9ebe 8c25 94bc
00000240: 0739 823e c908 b53d 9953 bc3e 8b2a 4e3e
00000250: 1125 92be 7041 be3e df7d bdbe 7d95 a73d
00000260: 1a21 2e3c 349a f8be 095b 953d 8ba1 4fbe
00000270: e28d d0be a3f3 0bbf 04f5 01bf 1492 dabe
00000280: d99e a0be df9e a4be 5de4 2ebd 0dd5 9ebd
00000290: 5718 0bbf 6f6c 89be 464f bcbe a8ee 09bf
000002a0: 9075 c83d 6f82 583e da54 9abe beb6 51bd
000002b0: 63bd 03bd edfe 213e 5d8d 16bf 2dd5 a9be
000002c0: f5ef a8bd 9f06 513d 07b7 4e3e 6126 93be
000002d0: be6b f3be 75f9 b8be ff6d fdbe c930 f1be
000002e0: 2dc9 2dbe 26a3 0abf bc18 cfbe 749a 24be
000002f0: c59f 39be f266 15bf dc3a ddbe cc7c 2abf
00000300: 92be 12bf 2dad 80bf c8cf 0dbf 6676 e9be
00000310: 5c79 2fbf e986 91be 55ec 43bf c7fe cebe
-0.52920496 0.29365513 -0.31546605 -0.2360175 -0.29585096 0.2843558 -0.4894669 -0.7393206
-0.525624 -0.32931817 -0.3843768 -0.19725347 -0.31224167 -0.4272557 -0.19671214 -0.28221324
-0.24778233 -0.0074541257 -1.0900496 -0.3661917 -0.23111577 0.1871719 -0.45933366 0.3772219
-0.19743039 -0.3122581 -0.211756 0.09398548 0.0036996454 -0.33979693 -0.0043368232 0.03911404
-0.4238883 -0.53992826 -0.16840081 -0.29235157 -0.27812356 -0.1121836 -0.2689038 -0.46238977
-0.38238603 -0.6953571 0.22178027 -0.82654244 -0.70891833 -0.03013962 -0.8983943 -0.35247195
-0.23691528 -0.22524121 -0.30902302 -1.1766125 -0.2084333 -0.4655796 0.014044871 -0.59267515
-0.19378693 -0.11962367 -0.57142884 -0.7026588 -0.44924438 -0.3733889 -0.15116727 -0.008172331
-1.3162997 -0.17102739 -0.5273259 -0.6156733 2.1210604 -0.30186203 -0.44992104 -0.75769335
-0.90088075 -0.5543883 -0.57297176 -1.483063 -0.813503 -1.161407 0.14650549 -0.65555906
-0.5755098 -0.6668743 -0.19343518 -0.8739553 -0.23601826 -0.94817203 -0.4309215 -0.21047992
-0.65971875 0.05149945 -0.712898 -0.7247632 -0.5799906 -0.28219506 1.1090868 -0.7090302
-0.455389 -0.70133966 -1.0326403 -0.6473921 0.008225465 0.14501478 -0.12042466 0.32890975
-0.1470409 0.43737546 0.07875422 0.13081154 0.10091398 -0.15970035 -0.09589139 0.19148006
0.3291725 -0.02427647 -0.4433772 0.15836176 0.07163567 0.24685365 -0.6152332 -0.020455271
-0.055848006 -0.17578936 -0.054324877 -0.47310147 0.2914638 -0.11979502 -0.015614606 0.22727683
0.58294475 -0.011713433 0.25568965 0.10322028 -0.18118945 -0.20855242 -0.14537354 0.07927892
-0.3152563 0.31843168 0.13920741 -0.23924054 -0.17719129 0.15072513 -0.30989563 -0.01808431
0.25434133 0.08839566 0.3678253 0.20133416 -0.28543904 0.371593 -0.37010095 0.081828095
0.010628009 -0.48555148 0.07292754 -0.20276468 -0.40733248 -0.54668635 -0.5076449 -0.42689574
-0.3137119 -0.3215246 -0.042698253 -0.0775548 -0.54334015 -0.2684054 -0.3677923 -0.53879786
0.09788048 0.21143506 -0.30142862 -0.051199667 -0.032163035 0.15819903 -0.58809453 -0.33170453
-0.08248893 0.051031705 0.20187007 -0.28740218 -0.47543138 -0.3612782 -0.49497983 -0.47107533
-0.16971274 -0.54155195 -0.40448558 -0.16074544 -0.18127353 -0.5836021 -0.4320897 -0.66596675
-0.5732204 -1.0052849 -0.55395174 -0.45598143 -0.68544555 -0.2842324 -0.7653249 -0.40428755

lstm2.weight_ih_l0 f4 [200, 50]
00000000: 50cb 2cbf 1be6 32be d769 46bf 4865 b1bf
00000010: e3ed acbf 6598 a8be a0d7 4bbf 14de bc3f
00000020: 8da7 713e c8b1 a93f a002 22bf 5058 00c0
00000030: 5c47 bdbf 23e5 12be fdd2 813f 96e3 ffbe
00000040: 749a 703e 6568 e8bf 6902 663f 6c48 d2be
00000050: 2021 e8bf b031 a83e bd78 8a3f 6a4d d53f
00000060: 611d b43f 881d ef3f 9cf0 b0bf 9cd0 97bf
00000070: 756e 1d3d 695a 2b3e 1d0b d83e 9df7 83bf
00000080: a2f9 1340 0b05 a33e 83bd bb3e 8cbf 11c0
00000090: 71d8 e83f df27 c43f 9dc6 ae3e 8be2 893f
000000a0: 91fe 933f 0ebd 64bf 7642 713f 53a6 d73e
000000b0: 5aad 3cbf 0168 02be 0409 10bf 77a6 8b3f
000000c0: 6356 853f 562b 513b 1e52 7ebe 7a08 9abf
000000d0: 2ea7 6bbf 25cc 60bd 421d 0ebe c4a9 7dbe
000000e0: c4e4 c5be 11d5 203f 69af 8bbf d08f bc3d
000000f0: a463 8c3e cddc 1dbe d001 05be 5169 72bf
00000100: c92a 473e 1308 c3be cc27 50bd e011 98be
00000110: 6e66 5f3e e76d d23e d4da e8be 36aa 4b3f
00000120: 179d 1d3f 46b9 773f 505c eabe 57c5 6c3d
00000130: 361a b03d a740 4ebf c4d9 93bd bc3c 823d
00000140: 5495 edbc 153c 5bbf 21fe 123e 4c9d 653f
00000150: 985d b1bd b868 653f 07c5 013f d1e9 393d
00000160: 42cd 4d3d 953e 883e 12ea 553e c21f dbbe
00000170: 643e 3d3e 4dbf 3bbe 0b61 093e 563b 3e3f
00000180: 7ad1 20bf ebb0 2abf 6c0c 563f 4cf4 8e3e
00000190: d488 e33d f32c f83e f25b ff3e d80c a53c
000001a0: aa7d 08be b614 71be 9a01 f8be bd27 93be
000001b0: 0574 fabe b594 833f a357 7d3e 58d7 9b3d
000001c0: 580c 603e a370 193e 7768 e93d efac fe3b
000001d0: c0c3 123f 13cb c3be ab41 df3d b281 123f
000001e0: 5659 e53e 4d2b a3bd 4815 23bf ee49 293e
000001f0: 6514 b13e 7020 0cbe 21a4 583e 1e87 6fbd
00000200: c33c 113f 51a1 7b3e 194d 983d 1bdd 38be
00000210: 1985 b8be 2e1a f0bd a8fe 123e 4ad6 7d3e
00000220: ee41 23be ad33 903e 6bb2 393f 132b 35bf
00000230: cdb6 173f d3c7 0bbf 8959 6e3f 15a8 4d3e
00000240: f72a 0e3f 301f 44be 5b1a 333c 2608 513d
00000250: 4a9e a9be 360d 9f3c fa73 3b3e 5d84 ddbf
00000260: 0d66 6d3e b42e 64bf cdd6 9d3e 4ffe 2bbe
00000270: 9fb2 1f3e 9cba 20be 7d55 96bf 9a9e 4fbe
00000280: a9d0 273f 37c4 9f39 e6c8 24be d5e0 8f3d
00000290: 61c6 74be bead b4bd cf96 02be 5da4 9abe
000002a0: 2033 133e 7068 29bf 5f2f afbe 5801 dcbe
000002b0: cb3e 9abf 8360 73bd 0be7 0abe 6de3 49be
000002c0: 873d 52bf a99e d7bd 0745 9dbe ffb4 8bbe
000002d0: a995 d0bf b89a 313f a703 20bf 7af9 b43d
000002e0: 2b72 cb3c 1f74 693e 8818 de3e 8e1d 64be
000002f0: 5b9a 27bf f44d 943f 4a96 cb3d 6638 463f
00000300: 9349 2cbe 191a 413f 02ab 593e c6a3 a13d
00000310: cff1 83be 0541 a5be a140 453f 9e23 1c3d
00000320: 7540 6cbf e3e2 cebe 90e7 65bf d502 b8bf
00000330: 6720 a13f 4e23 95bf 9c95 a43f 2b6c 8a3f
00000340: 78ba 9c3f a1c9 853b 9adb c9be a615 b83f
00000350: f194 14c0 775d ba3e 7702 c03e f5d4 5fbf
00000360: 5a2b 8c3f c4fe 01bf b5be 2fbd 749e e63d
00000370: b02c 26be 31b4 463f 83cb 603f 4770 c0bb
00000380: 9a86 1bbe 5730 47bf cb70 03bd 9045 513f
00000390: 8e43 eebf 7ccd 9e3e 2f34 ec3f f095 11bf
000003a0: b989 033f d7b0 a83f 740f 18bf b624 a03f
000003b0: 7e78 d0be c19d b5be c7cd 30bf 1d7b 9fbf
000003c0: 57f1 4abf 35a6 4cbe 1dd3 3c3f 9d50 62bf
000003d0: 0773 ccbf d291 88bf 0af7 98be 1059 713f
000003e0: fd02 a5be 2d59 c7bd 2500 bbbf 41e6 d2be
000003f0: f5d6 94bf a7c5 1c40 30b8 b4be 7b50 eebe
-0.6749773 -0.17470591 -0.7750525 -1.3859034 -1.3510097 -0.32928768 -0.7962589 1.4755273
0.23599072 1.325738 -0.63285255 -2.0053902 -1.4787402 -0.14345221 1.0142514 -0.49978322
0.23496419 -1.8156859 0.8984743 -0.41070879 -1.8135109 0.3285041 1.0818096 1.666425
1.4071466 1.8680887 -1.3823428 -1.1860538 0.03843542 0.16733707 0.4219598 -1.030994
2.3121114 0.31839785 0.36668023 -2.277316 1.8191053 1.5324668 0.34135905 1.077226
1.1562063 -0.89350975 0.94242036 0.42119083 -0.73702013 -0.12734987 -0.56263757 1.0910176
1.0416988 0.00319167 -0.24836013 -1.2033837 -0.9205197 -0.054882187 -0.13878348 -0.24771792
-0.38651097 0.62825114 -1.0912906 0.092071176 0.2741977 -0.1541626 -0.12988973 -0.9469195
0.19449915 -0.38092098 -0.050819203 -0.29701138 0.21816418 0.41099474 -0.45479453 0.79556596
0.61567825 0.9676708 -0.45773554 0.057805385 0.08598749 -0.805674 -0.0721927 0.063592404
-0.02900187 -0.8563855 0.14354755 0.8969314 -0.0866043 0.89612913 0.50691265 0.045389
0.050244577 0.26610246 0.20890072 -0.42797667 0.18480831 -0.18334694 0.13415925 0.7430929
-0.62819636 -0.66676205 0.83612704 0.2792076 0.11110082 0.48471794 0.49874836 0.020147726
-0.13329187 -0.23543057 -0.48438722 -0.28741255 -0.4891664 1.0279757 0.24740462 0.07609433
0.21879709 0.14984374 0.11396878 0.00777208 0.5732994 -0.3824087 0.10901197 0.5722915
0.4479472 -0.07967243 -0.6370435 0.16532108 0.34585872 -0.13684249 0.2115636 -0.058478467
0.5673334 0.24573256 0.0743658 -0.18053095 -0.36039045 -0.117237434 0.14354956 0.24788776
-0.15943119 0.28164425 0.7253787 -0.7076885 0.59263307 -0.5460178 0.9310537 0.2008365
0.5553431 -0.19152522 0.010931577 0.05103316 -0.33128577 0.01941548 0.1830596 -1.7306019
0.2318346 -0.89133763 0.30827942 -0.1679623 0.15595482 -0.15696186 -1.1744839 -0.20275345
0.65552765 0.00030473035 -0.16092262 0.07025305 -0.239038 -0.08822201 -0.12752841 -0.30203524
0.14374971 -0.66174984 -0.3421583 -0.42969775 -1.2050413 -0.059418213 -0.13564698 -0.19715662
-0.82125133 -0.10528309 -0.30716726 -0.27286527 -1.6295673 0.6937671 -0.62505573 0.088366464
0.024834713 0.22798203 0.4337809 -0.22276899 -0.654699 1.158629 0.09940775 0.7742981
-0.16824941 0.75430447 0.2125664 0.078925654 -0.25770423 -0.32276168 0.7705174 0.038119905
-0.92285854 -0.40407476 -0.8980646 -1.4375864 1.2588013 -1.1651399 1.2858157 1.081426
1.2244406 0.004082874 -0.39425355 1.4381607 -2.3215907 0.36399433 0.3750188 -0.8743432
1.095073 -0.50779366 -0.04290648 0.11260691 -0.16227984 0.776187 0.87810534 -0.0058727595
-0.15188065 -0.77808136 -0.03208999 0.8174677 -1.8614366 0.31016147 1.8453425 -0.5686941
0.51382023 1.3178967 -0.5939858 1.2511203 -0.40716928 -0.3547192 -0.6906399 -1.2459446
-0.79274505 -0.19985278 0.73759633 -0.88404256 -1.5972604 -1.0669501 -0.29875976 0.94276524
-0.32228842 -0.09733806 -1.4609419 -0.41191295 -1.16281 2.4495637 -0.35296774 -0.46545777

lstm2.weight_hh_l0 f4 [200, 50]
00000000: 295c f9be 77b3 593f e9b6 aa3e 4d36 393e
00000010: b0c1 783e 9ccb a03e 9d53 00bf 4e25 cebe
00000020: f0ed 86bf de8d bbbe 46cc c93d 9c0f 0abf
00000030: 0bfb 553f 0010 863d 7030 413e 901a 19bf
00000040: 9f82 e2be 812b b8be 045d ab3d 34a9 45be
00000050: 51d0 a63e 6bff 23bf 65d2 f6bd c51b 89be
00000060: b17d 493f 1a99 4dbe 6efd a6be b173 a53e
00000070: d2e0 103f 75f4 cebe 082f 8c3e ca77 43be
00000080: 3751 7abe 8633 94bd eed2 eabe 24c7 b23e
00000090: 80fc 4d3a f50d 103f 4708 d0be 7001 05bd
000000a0: 55ac c8bd 99cd adbd d179 c13d 64f3 dbbc
000000b0: 7e50 4b3f 3574 36bf e1c2 f23e 552c 2dbf
000000c0: 07a6 ca3e f977 803e 0274 083f 6dbc a43d
000000d0: c1bd 783e 4bcf f6bd cd17 5b3d a413 5ebe
000000e0: 4df9 d0bd a020 833e bd93 0fbe 5638 833e
000000f0: ff61 e03e 28da f9bd e6bc d73c a328 073f
00000100: 9460 383f 84e4 a23e fa2c 37bf 5787 363e
00000110: 60c2 863e f2ec 05be 61eb 57bd 46b3 eabd
00000120: 3f63 4dbe fcdb 303e ce18 9b3d dcb3 053f
00000130: fdda bbbe 98c9 f83d 0460 0b3e 3446 65bd
00000140: 001e b7be e5db dcbe 1f6f 4c3f 55f4 493f
00000150: 66ec 853d 5dc5 88be d359 a7bd 10f3 fdbe
00000160: 383e 8fbe 2288 3a3d db24 fa3e a7e1 e23e
00000170: cf1f 96bd d210 87be 2674 59bd 2ea3 8dbd
00000180: 7a1b d1be 1016 a73e a008 51bd 9048 b43e
00000190: e8a0 09bf 21f0 0d3e 0597 bf3e 9eac 913e
000001a0: 6216 813e 53f5 cbbe 8e7c aa3f 23ef 10be
000001b0: 0091 233f 1b1b 30bd 6136 0dbf 7223 0e3e
000001c0: 18fa f2bd 0215 d43d 10ae cb3f 6e65 f33e
000001d0: abb5 09bf d0fc 993e bb79 5dbd 2296 09bf
000001e0: ecc0 91be c350 453f 38a6 773e 61db 423f
000001f0: 5db7 5d3e 953b c43a 929a ccbd 39b3 d3be
00000200: 622d abbf 3d82 01bf 4ddb 76be a3e1 99bf
00000210: 4eab 39bf 2283 e7be aeea b43e 1c07 30bf
00000220: 53a4 57be b779 1b3f 3094 8bbe 2624 dfbe
00000230: 9e6a e63e 675f 74be beb3 0dbf 4872 d3be
00000240: f7d8 05be 9ea4 66be 58bd f03d dfb5 b43d
00000250: 7c42 7cbe 5c62 fabc b752 a7be b20d 9f3e
00000260: 22fa 1cbe 4f3d 29bd ebd3 983e 9606 5a3e
00000270: 44b4 e13e 9e34 0a3d f16e af3e 9613 853e
00000280: b5b2 a13c 5717 93be f8ce cdbe c240 ee3e
00000290: e537 97bc dde5 9dbe c150 32bf c1bd 5cbd
000002a0: def9 873f f24b 93bf a1c1 ce3e f8c7 87be
000002b0: 652a 813e af77 97be d3d1 9c3e d147 3ebf
000002c0: 93c3 b83c 8824 5dbe f741 a63d 1b61 9abd
000002d0: 8079 a23c 26a6 0dbf ba18 753e 7375 563e
000002e0: f22b f4bd 5532 9c3d 699b 8c3e d5a9 133e
000002f0: 40dc f23d 0fbf f83c 5427 193f ff5a 5ebe
00000300: 32eb 6a3e 3539 fbbe b99b 85be 379d c53d
00000310: e92e f43e d4f7 bf3e 8835 20be e8af a83e
00000320: ffb0 66be 0427 8ebc 3441 2e3f 068c b63e
00000330: b67d ec3e 4962 953e 9c2d 813d 7b57 4b3e
00000340: d1ee 46bc 1c8a 3a3e 5d88 b8bd 1826 d53e
00000350: c9b0 8e3d 7594 053f 151a 143e 676d 76be
00000360: ee22 4cbe 6926 da3e 0aa1 b03e 0c19 e0be
00000370: 2a62 20bd e10d 573e 2c2a eb3e d645 b13e
00000380: b5ec 34be 0444 8b3d 1ef1 12bf 2225 463e
00000390: ea06 833f 146a c23d 8428 2f3f 0ff0 433f
000003a0: a1ff 0c3f a3b7 103e f3ab 723e 8f69 bebe
000003b0: 471d bf3e 323d 26bf d14f c1bd db75 acbe
000003c0: f16c b2be 1d2b 8fbc aedc 3ebf d9e3 a9be
000003d0: 7653 833f 9d98 2ebf 5e5a 3bbd e61e 6e3e
000003e0: 140b adbd 3d0a 16bf fcee 6abe 03ba 11bf
000003f0: 60f1 c83e 6bd9 103e 42ee 4f3e b59c 603f
-0.48703125 0.85039467 0.33342674 0.1808712 0.24292636 0.31405342 -0.50127584 -0.40262836
-1.0541363 -0.36631674 0.09853415 -0.5393007 0.83586186 0.065460205 0.18866134 -0.59806156
-0.4424028 -0.3597069 0.08367351 -0.19302827 0.32580808 -0.6406161 -0.12051848 -0.26779
0.78707415 -0.20077935 -0.32615227 0.32314828 0.5659305 -0.4042088 0.27379632 -0.19088665
-0.24445044 -0.0723639 -0.45864052 0.34917557 0.0007857755 0.56271297 -0.40631315 -0.032472074
-0.09798495 -0.0848648 0.09447063 -0.026849456 0.79419696 -0.7127107 0.47414306 -0.6764577
0.39579794 0.25091532 0.53302014 0.08043752 0.24291135 -0.12051257 0.053489495 -0.2168718
-0.102038 0.25610828 -0.14021201 0.25628918 0.43824765 -0.12199813 0.026335191 0.5279638
0.72022367 0.3181497 -0.71553004 0.17825066 0.2632017 -0.13078669 -0.05271471 -0.11459975
-0.2005739 0.17271417 0.075730905 0.5222757 -0.36690512 0.12147826 0.13610846 -0.055975154
-0.35765076 -0.43136516 0.7985706 0.78888446 0.0653923 -0.26713076 -0.081714295 -0.49599504
-0.27977157 0.045539983 0.48856243 0.44312784 -0.07330286 -0.2638002 -0.053089283 -0.0691589
-0.40841275 0.3263402 -0.051033616 0.3521161 -0.5376115 0.13861133 0.37419906 0.2845201
0.2521239 -0.39835605 1.3319261 -0.14153723 0.6389313 -0.0429946 -0.551611 0.13880709
-0.11864108 0.103555694 1.5912495 0.47538322 -0.5379283 0.30075693 -0.05407117 -0.5374471
-0.284675 0.7707636 0.24184501 0.76115996 0.21651979 0.001497137 -0.099904194 -0.41347674
-1.3373225 -0.5058935 -0.24107094 -1.2021984 -0.72527015 -0.45217234 0.35335296 -0.6876085
-0.21058778 0.607326 -0.27261496 -0.43582267 0.45003217 -0.23864518 -0.5535239 -0.41298127
-0.13071047 -0.22523734 0.117548645 0.08823752 -0.24634737 -0.03056448 -0.32680294 0.31065136
-0.15329793 -0.041318234 0.2984918 0.21291575 0.44082844 0.033741586 0.3426433 0.25991505
0.019738534 -0.28728744 -0.40196967 0.4653378 -0.01845927 -0.30839434 -0.6965447 -0.0538919
1.0623128 -1.1507552 0.40382102 -0.26519752 0.25227657 -0.295835 0.30628833 -0.74328333
0.022554195 -0.21595967 0.081180505 -0.07538053 0.019833326 -0.5533165 0.23935214 0.20943241
-0.119224444 0.076267876 0.2746232 0.14420255 0.118584156 0.030364541 0.59825635 -0.217144
0.22941282 -0.49067083 -0.2609537 0.09649127 0.4769204 0.37493765 -0.1564542 0.32946706
-0.22528456 -0.017352588 0.6806824 0.35653704 0.4618966 0.29176548 0.063075274 0.1985759
-0.012141899 0.18216747 -0.09010384 0.41630626 0.06967313 0.5217965 0.14463075 -0.24065171
-0.199352 0.4260743 0.34497863 -0.4376911 -0.039156117 0.21001388 0.45930612 0.34623593
-0.17668422 0.06800082 -0.57399166 0.19350103 1.0236485 0.09492889 0.68421197 0.76538175
0.5507756 0.14132552 0.23698406 -0.3718991 0.37327024 -0.64937127 -0.09439052 -0.33683667
-0.3484874 -0.017476613 -0.7455548 -0.33181646 1.0259845 -0.6820162 -0.045740478 0.23253974
-0.084493786 -0.5860937 -0.22942728 -0.56924456 0.39246655 0.14145438 0.20305732 0.87739116

lstm2.bias_ih_l0 f4 [200]
00000000: 0739 f5be 5c7b a8be ca1c 1dbf 0dee 34be
00000010: d6c1 b1be b9be a7be 1b15 57bf ae98 b1be
00000020: f415 8abe 9755 14bf 70cb 39bf c475 41be
00000030: e24b 17bd b985 fabb 507c 28bf 3785 aebd
00000040: da94 513e d719 eebe 6cce 38bf bdbb 45bf
00000050: 498c c4be aa85 e4be 85d7 febe 94d7 a5be
00000060: 8657 a8be 518d 77bc a40a 5fbf 5ad3 9abe
00000070: f392 14bf 42be 37bf 2fc0 a5be 9404 94be
00000080: 2a8b 10bd 449c b5be 92b4 f4be b310 03bf
00000090: 55b5 e8be 4082 cabe 7032 97be f1f2 4dbe
000000a0: 367c 90bd 3c5e 7abe d483 d8be ca3c b1be
000000b0: be02 fdbe f905 22bf 8026 b5be 7e44 a2be
000000c0: 8897 f5be 2b28 cebc cf75 993f 0b2c ee3e
000000d0: 3cf3 d63e 73fd ebbe 0505 ab3e 4a3c af3f
000000e0: 11a3 2f3f 470b d53f 565a d23e 292c cd3f
000000f0: 7131 bbbd dd34 0f3e 0517 efbd 1c4e 96bf
00000100: c454 ba3e 680c b43d abca 7cbf 9590 b83f
00000110: 9fcd 6e3f dd0a 6a3f 1783 0d3f ea83 873f
00000120: 7c86 0b40 45a2 f23b 079c 3f3e 0f59 ed3b
00000130: 6ae1 373f 520b babd c2c6 bc3f 0300 ff3f
00000140: 0eb6 863e a741 0fbe 7545 f5be 4ce9 4a3e
00000150: d754 fd3f bfba d73e 2475 ef3f d6ff b43e
00000160: 80f1 bc3e 2c36 a33e a970 e83e 1082 fa3f
00000170: b433 a63f 4e05 c93f 37b5 893f 0c7e a13f
00000180: 3e9e db3e 80f6 2a3d e301 ec3f 9ecd 3ebe
00000190: 6b37 823e 37d9 82bd 6c45 7a3e 8498 2abe
000001a0: 2002 7ebe b6af 743e 6997 a4be 22ef 7aba
000001b0: 1a37 aabc f6bb 02bf d9fb e73d 79d8 9d3e
000001c0: ecf8 03bf a022 d1bf 869e ff3d 3367 d6bc
000001d0: 7c87 243f e5be a0bd d4bb 463e 434e e7bd
000001e0: 5819 d73b d903 c33e 57dc e63e 8856 9dbd
000001f0: b862 893e 3b69 2d3e d784 a53d c3f0 3e3e
00000200: bf30 2ebd c95e aa3e 62e1 a1be 9903 f8bc
00000210: a6db f33d 3690 88be f356 8a3e a8ef 783d
00000220: 3bcc 0a3d 809b bfbd 8796 363e b690 0e3e
00000230: c4e4 b73e a0d6 9a3d 8230 e5be e51e 90bd
00000240: 9188 b8be 81ae 013f 6c68 94be 4235 163e
00000250: 3f2a 00bf c0d0 91bd 33ae d1be a8d1 6fbe
00000260: 3084 123f 9854 b7be 54fb b1be 5ca4 29be
00000270: 785d 353c d098 16bf 7507 ccbe 2797 bdbe
00000280: 5a75 7bbe ce84 6bbe 1699 64bf 1175 9e3e
00000290: f0cf a4be 60ec 3bbd 99c7 233e 1b8d 26bf
000002a0: 873d 0fbf 2ebd 41bf f3d0 13be 251d 91be
000002b0: e397 ecbe 43b2 3bbe 3aa3 833d 63cb 0fbe
000002c0: 4a8e 143f 75b3 0cbe ee5f 2bbf 27cb 9abf
000002d0: 9b1b 06bf dd83 01bf 699f 6dbe 9ef1 efbd
000002e0: a9ff f8be e3d7 02bd f7b0 1cbf 1839 28bd
000002f0: f2c6 19bc 60d5 9fbe ca4e cabd 9b38 40bf
00000300: 9a18 2cbf 5781 23bf 5cc0 f53c 5d21 e3bd
00000310: c511 19bd b050 29be 2817 993e 6099 d23d
-0.4789507 -0.32906616 -0.61372054 -0.17668934 -0.34718198 -0.32762697 -0.8401658 -0.34686798
-0.26969874 -0.579431 -0.72576046 -0.1889258 -0.036937602 -0.0076453355 -0.65814686 -0.085215025
0.20466939 -0.4650409 -0.72189975 -0.7723959 -0.3838828 -0.44633228 -0.49773803 -0.32391036
-0.32879275 -0.015109376 -0.8712561 -0.30239373 -0.58036727 -0.71774685 -0.32373187 -0.28909743
-0.035288967 -0.35470784 -0.47794014 -0.51197356 -0.45450845 -0.39552498 -0.29530668 -0.20112206
-0.07054941 -0.2445001 -0.42288077 -0.3461669 -0.49416155 -0.63290364 -0.35380936 -0.3169288
-0.47967172 -0.025165638 1.1989077 0.46517977 0.41982448 -0.46091804 0.33402267 1.3690274
0.68608195 1.6644067 0.41084546 1.6029102 -0.091402896 0.1398501 -0.116743125 -1.1742587
0.36392796 0.08791429 -0.98746747 1.4419123 0.932825 0.91422826 0.5527815 1.0587132
2.1800833 0.007404598 0.18711863 0.0072432826 0.7182833 -0.090841904 1.4748156 1.9921879
0.26310772 -0.13989888 -0.47904554 0.19815558 1.9791516 0.42134663 1.8707623 0.35351437
0.36903 0.31877267 0.45398453 1.9570942 1.2984529 1.5704744 1.0758427 1.2616591
0.42894167 0.041738987 1.8438076 -0.18633124 0.25432906 -0.06389087 0.24440545 -0.16659743
-0.24805498 0.23895153 -0.32146767 -0.0009572377 -0.020778228 -0.51068056 0.11327333 0.30829218
-0.515517 -1.6338692 0.12481408 -0.026172256 0.6426923 -0.0784891 0.19407588 -0.11294224
0.0065643005 0.38088873 0.4508998 -0.0768252 0.2683313 0.16934673 0.08081978 0.18646531
-0.042526957 0.3327544 -0.31617266 -0.030275153 0.11907129 -0.26672524 0.27019462 0.06077543
0.033886176 -0.09355831 0.17830859 0.1392239 0.35916722 0.07560468 -0.4476357 -0.07037143
-0.36041692 0.50656897 -0.28985918 0.14668754 -0.5006446 -0.07119894 -0.40953216 -0.23419821
0.5723295 -0.35806727 -0.3476206 -0.16566604 0.011069648 -0.58826923 -0.3984944 -0.37029383
-0.24556485 -0.2299988 -0.8929609 0.3094869 -0.32189894 -0.04587972 0.15994109 -0.6505906
-0.5595326 -0.7567929 -0.14435177 -0.28342548 -0.4620963 -0.1832972 0.06427617 -0.1404243
0.58029616 -0.13740332 -0.6694325 -1.2093247 -0.5238587 -0.5059183 -0.23205341 -0.11716007
-0.48632553 -0.031944167 -0.61207527 -0.041070074 -0.009385811 -0.3121748 -0.09878309 -0.75086373
-0.6722504 -0.6386923 0.02999895 -0.11090348 -0.037370462 -0.16534686 0.2990048 0.1028316

lstm2.bias_hh_l0 f4 [200]
00000000: d915 f9be 787b 9fbd b9d0 f7be a142 c2be
00000010: 2525 d8be 88fe aabe ba4a 1cbf a4a9 31be
00000020: d4ef 2dbe e9f0 08bf 9524 30bf e03d 88bd
00000030: 621b 8ebd 2f29 703c 5504 06bf a5af 9cbe
00000040: 0074 713e 5ae8 0bbf dc48 21bf fd2a 13bf
00000050: d1c4 cebe c172 b1be 8315 1bbf 8cb2 99be
00000060: c308 b8be a041 f4bd 7257 4cbf 7b28 54be
00000070: a025 d1be 80df 1bbf e208 cfbe 3658 75be
00000080: a509 193d f31f 62be 6aed 0cbf e8b2 1abf
00000090: 5574 edbe 27ca 8cbe 924a cabe f57c 61be
000000a0: c9ab 05be 9714 95be 7090 d9be 8f2a dfbe
000000b0: e5b8 10bf 67d7 1ebf f38a 5bbe d65d 01bf
000000c0: 3c6b 2dbf cef4 39be 558d 823f 3bb0 db3e
000000d0: b88e 0e3f 42aa 06bf 7638 e03e 7396 b03f
000000e0: 7f64 3b3f 66a5 d23f 5ed4 8f3e 68a6 e83f
000000f0: c397 09be a7fb 213e b668 f03c b52c 84bf
00000100: 7561 d83e e05c 883e c06b 58bf cf0a c23f
00000110: 4aa8 7f3f 733a 4b3f 03fb db3e 4f9a 723f
00000120: 9bc4 0c40 1764 85bd 9eeb 813e 3f7f c6bd
00000130: 9067 453f faac 4d3d 6280 b13f a0d6 e93f
00000140: fcfe 2e3e 9639 9cbd 2680 07bf b19c e23e
00000150: 6c64 f13f 4c63 c53e a627 dd3f 5a4e 903e
00000160: 0007 c43e 44a3 1a3e bd29 0c3f c1e5 eb3f
00000170: 3e12 893f 99e3 cf3f b20e a23f 6cfe 8a3f
00000180: 9e2b fb3e b0ec e33d b17e de3f d798 2dbe
00000190: 6e3c fe3e 1db2 84be 620a 683e adcd 32bd
000001a0: fda5 b2be bc7e 713e 4362 aebe c95f 9bbc
000001b0: b775 033e 8025 79be e4c7 043e 93c5 bc3e
000001c0: 5126 acbe 6148 cabf c3b6 703e cddb 93bc
000001d0: 6e32 f83e fada bdbd 5cbf 0e3e 5e70 5f3d
000001e0: 4fa5 3fbe 60eb 0d3e c9bb 1b3f 87b1 273d
000001f0: 92d2 cb3d 0d4e 2c3d 4fd9 173c 6b10 723d
00000200: 5cc9 95bd 3b73 a03e e155 d8be b348 3abe
00000210: d8c8 d43c 1d7f 8cbe 5cbe 2f3e dcf3 a33d
00000220: 848a 443e c947 6fbe 1e8f a03e 94fb 453e
00000230: 0df5 dd3e 785f 573e cd7d d4be 0a62 5ebe
00000240: f049 d6be d643 f83e 6542 b2be 7c4f 4e3e
00000250: 9f9e 05bf e340 7c3d 59c3 7cbe 3422 b7bd
00000260: 97fa 173f e9e1 9ebe 1aad f7be c991 98be
00000270: 320e d2bd 1c58 37bf 6d53 fdbe 320d ecbe
00000280: 1fa1 8ebe eb5b 84be 8328 6cbf 34b7 333e
00000290: 9380 8fbe b5a4 6fbe c3cd 333e 21bc 28bf
000002a0: 0795 31bf 5034 00bf a4ae 0f3c ea82 51be
000002b0: c37b a1be eca1 aa3c dc98 16bd d66b ffbd
000002c0: 7937 3b3f d325 343a 4a71 1fbf 412c 96bf
000002d0: d776 12bf 01d1 9fbe 382b 2cbe 5777 88be
000002e0: c7b8 00bf 8e74 16be e259 1bbf 76b9 35be
000002f0: 8dba dabc 40ae 64be 929a 76be 22bf 47bf
00000300: 10d1 0bbf 0708 16bf bdc4 14be bb6b a7be
00000310: 38fe cabd fcef 88be 1986 253e ba55 e2bc
-0.4864948 -0.07787222 -0.4840143 -0.3794146 -0.4221584 -0.33397317 -0.61051524 -0.17349869
-0.16986018 -0.534926 -0.6880582 -0.06652427 -0.069388166 0.014658256 -0.5235036 -0.30602756
0.23579407 -0.54651415 -0.630018 -0.5748747 -0.40384534 -0.34657863 -0.605797 -0.30019033
-0.35944185 -0.119265795 -0.7982093 -0.20718567 -0.40849018 -0.6088791 -0.40436465 -0.23959431
0.037362713 -0.220825 -0.55049765 -0.6042924 -0.46377817 -0.2749798 -0.39510018 -0.22020324
-0.13053812 -0.2911727 -0.4249301 -0.43587157 -0.56532127 -0.6204743 -0.21439724 -0.5053381
-0.6774175 -0.18159792 1.0199381 0.4290789 0.5568652 -0.5260354 0.43793076 1.3795913
0.7320022 1.6456726 0.2809171 1.8175783 -0.13436799 0.15818654 0.029346805 -1.0326144
0.42261854 0.26633358 -0.84539413 1.5159549 0.99866164 0.7938606 0.42964944 0.94766706
2.1994998 -0.06513231 0.25375074 -0.09692239 0.7711115 0.05021379 1.3867304 1.8268623
0.17089456 -0.07628171 -0.52929914 0.4426017 1.8858771 0.3855232 1.7277725 0.28184777
0.3828659 0.15101343 0.5475119 1.842949 1.0708692 1.6241332 1.2660735 1.0858893
0.49056715 0.11129129 1.7382413 -0.16952835 0.4965548 -0.2591714 0.2266021 -0.04365318
-0.34892264 0.23583502 -0.34059343 -0.018966572 0.12837873 -0.24330711 0.12966877 0.36869487
-0.33622983 -1.5803338 0.23507218 -0.018049145 0.48475975 -0.09270282 0.13940185 0.05455052
-0.18715404 0.1385932 0.6083341 0.040940788 0.099522725 0.042066623 0.009268119 0.05909769
-0.07313797 0.31337914 -0.4225302 -0.18191795 0.025974676 -0.2744073 0.1716246 0.08005497
0.19193465 -0.23367228 0.3135919 0.1933425 0.4335102 0.21032512 -0.41502228 -0.21717086
-0.41853285 0.48489255 -0.3481628 0.20147508 -0.5219516 0.06158532 -0.24683894 -0.089420706
0.59366745 -0.3103173 -0.48374254 -0.29798725 -0.10256614 -0.7161882 -0.4947771 -0.46103817
-0.278573 -0.25851378 -0.92249316 0.17550355 -0.28027782 -0.23402674 0.1755896 -0.6591206
-0.6936802 -0.5007982 0.008769665 -0.20460096 -0.31539735 0.020829163 -0.03676687 -0.1247174
0.7313152 0.00068720913 -0.6228224 -1.1732255 -0.57212585 -0.31214145 -0.16813362 -0.2665355
-0.5028195 -0.146929 -0.60684025 -0.17746529 -0.026700282 -0.22332096 -0.24082401 -0.7802602
-0.5461588 -0.58606 -0.14528175 -0.3269938 -0.0991177 -0.26745594 0.16164435 -0.027628768
