training_part/spelling_correction/saved_model_3/char2vec.pth (torch, 532248 bytes, 8 tensors)

lstm1.weight_ih_l0 f4 [400, 27]
00000000: f17b ccbf 89bd 7bbf 7b27 073e 5be4 073b
00000010: 31ec 83be e1e3 ffbd bc7f 72bf dce6 35be
00000020: ac21 0abe ffdb 8b3e f7ad 813f fef2 63bf
00000030: 9a7a 413f 0700 1ebf 702d 46bf 12c6 dabd
00000040: 2fdc 613f 505a b43d c398 63be 6f44 70bf
00000050: 97b9 17bf deba 96bc d3c3 51be 6862 223e
00000060: c462 3f3f 4138 16bf 0f21 a13d 4129 1cbf
00000070: 62b6 87bf e4fa 1b3f 10b2 b4bf 1eef 9bbf
00000080: 2b34 1bbd 7614 783e 4cfd 26bf b24d 6e3f
00000090: 31b0 7ebf c18b d4bd 38b9 c73e c2ef aabf
000000a0: 0a35 bebe 0541 ecbf e3a6 73bf 7857 b53e
000000b0: 68c5 dabe f8a7 5fbe a881 fa3e f557 91bf
000000c0: 2fdb 1cbe ffd3 1cbf 90a2 bcbe c2bd 773f
000000d0: a3b3 9fbe a765 413d b9eb 3fbf 0341 1f3e
000000e0: 9f30 323e cdea 25bd 4d9d b4bf 2954 57be
000000f0: d9c6 483f 6821 4f3d 2329 5abf 83a2 d2be
00000100: cf14 bdbe 5655 633e fdf6 83bf fab8 933f
00000110: 4ac7 90bd b801 bc3e 85de 90bd 61ec 8bbc
00000120: bbb6 91bd 3dd8 7ebf a328 88bf a63c 20bf
00000130: b313 d1be 71bd 4abf 0ded 5dbe 18ff d4be
00000140: 2a29 60bd 83aa 89bf 3c33 4fbf 553f 0cbf
00000150: ac3c 633e f456 a7bf 8fab 5ebe 00f5 02bf
00000160: a154 11bf 4417 9abf 0743 87bf a830 84bf
00000170: def4 5cbf a2f1 d83d baf6 99be 3ade 1bbf
00000180: 116c 7ebe 72ff c43d 139a dcbf ec9b 6ebf
00000190: e530 6abf 16f0 903f 75db 6cbf 85cb 883f
000001a0: 0668 e0be e0d7 84be 45c7 afbd eba1 9bbd
000001b0: 6076 413d bfd7 073e d2c2 0fbf 8d00 e9bc
000001c0: 4adc 0dbf 1c43 843e 9801 e4be 9050 ccbf
000001d0: 4f7d 55be b5ed 16bf 8d3c 63bf 63bb 453e
000001e0: 2bb7 a8be 68b9 54bf 93af ea3d a46c 8bbf
000001f0: a068 10bf d7ad 80bd 15c2 26bf b34d 163e
00000200: 6829 be3e 4441 653f 3b12 153e 8ef5 043e
00000210: d9b7 cebe a148 20bf 4d58 043d d444 86be
00000220: 360d f9bf 32ac 2e3d 68ad 36bf 9160 14c0
00000230: f8d2 e33d f870 443e 37eb 58bf 45a5 493e
00000240: 0ff2 223e 89fe a3bf fb74 9cbf b377 71be
00000250: e068 d4bd 19af 85bf 00ea 95be 3314 59bd
00000260: bb5f 64be e799 98bf 5e7d 25bf e4e6 17bf
00000270: c4b8 223d 15e6 8fbf 61c8 31bf 0fd8 5bbf
00000280: 781f 12bf 475c 73bd aa75 47bf 4933 f53c
00000290: b82f b5bc 0f0d a63d d685 fbbd 56ad a3bf
000002a0: 72b4 0a3f ac27 0ebf dc81 f0bf e791 d6be
000002b0: 8da8 a7bf c5aa 593e 5b45 9d3d 0a19 213e
000002c0: ce5f 433e 00e9 dbbd b127 123f 8a63 f63e
000002d0: c977 dabe da8c ddbe 81f8 013d 6d24 15bf
000002e0: 9640 253f 39da a53e bdf9 a2be 6399 12bf
000002f0: 13d4 a4bd d856 bebf 88a7 bbbf 3c18 a5bd
00000300: b5f0 a93e de51 8fbf c6fe ffbe 7282 d8bd
00000310: 801d 443f 257b 3abf b1e3 86be cab5 bf3e
00000320: 9772 5dbd 3125 fe3b 35a7 263f 0132 1a3f
00000330: 6a86 55be 6c41 743e 146e fbbf c009 f0be
00000340: b352 e4bf a2a6 96bf bc82 893e a43e 5cbf
00000350: 4c6f 2fbe 1b7c 0abf cd7a 6d3f c200 b2bd
00000360: 752b a3bf d7e9 1a3f ec5b 8fbf db2a 233e
00000370: 0ace 1fbe 561e 073d ea48 fcbe 174b ddbe
00000380: 24e3 08bf 879d b93e 19e7 81bf 2b29 44bf
00000390: 1b63 b7be a455 183e fdc0 4cbe 4979 8ebf
000003a0: c58a 12be f53e 8c3d 53a9 efbe cdb1 47bf
000003b0: 6672 e3be ed11 8abe ec84 83bf 8b05 cb3e
000003c0: 6966 643e 296b ef3c 1b3c b1bd f1ba 28bf
000003d0: 401b 383e d174 f8be 9d25 2abf 5d37 56bf
000003e0: 30cf 34bf 9f56 d93e eed4 8cbf 644d b0bf
000003f0: a486 a2be 4f60 b23f f2c0 78bd 9354 db3e
-1.5975324 -0.9833608 0.13198654 0.0020735476 -0.25766137 -0.12494636 -0.9472616 -0.17763847
-0.13489407 0.2731628 1.0131215 -0.8904265 0.755777 -0.6171879 -0.7741308 -0.1068231
0.882266 0.08806288 -0.22226243 -0.9385442 -0.5926756 -0.018399652 -0.20484857 0.15857852
0.7476008 -0.58679587 0.078676336 -0.6100045 -1.0602534 0.60929704 -1.411684 -1.2182348
-0.037891548 0.24226555 -0.6523025 0.93087304 -0.99487597 -0.103782184 0.39008498 -1.3354418
-0.3714984 -1.8457342 -0.95176524 0.35418296 -0.42728734 -0.21841419 0.48927045 -1.1354967
-0.15317987 -0.6126098 -0.36842775 0.9677392 -0.3119174 0.047216084 -0.7496906 0.15552144
0.1740136 -0.040507127 -1.4110504 -0.21028198 0.7842842 0.050568968 -0.8521902 -0.41139612
-0.36929938 0.22200522 -1.030975 1.1540825 -0.07069261 0.3672006 -0.07073692 -0.017080488
-0.07114931 -0.99548703 -1.0637401 -0.6259254 -0.40835342 -0.79195315 -0.21672459 -0.4160087
-0.054726757 -1.0755161 -0.8093755 -0.54784137 0.22191113 -1.3073411 -0.21745132 -0.5115509
-0.5676976 -1.203835 -1.056733 -1.0327349 -0.8631114 0.10592963 -0.3007105 -0.60885966
-0.24845912 0.09619035 -1.723452 -0.9320667 -0.9148086 1.1323268 -0.92522365 1.0687109
-0.43829364 -0.2594595 -0.085829295 -0.07599243 0.04723203 0.13265894 -0.5615665 -0.028442645
-0.5541426 0.2583245 -0.44532466 -1.5962086 -0.20848583 -0.5895646 -0.8876427 0.19309764
-0.32952246 -0.8309541 0.114592694 -1.089253 -0.56409645 -0.06283157 -0.65139896 0.14678077
0.37140965 0.8955271 0.14557736 0.12984297 -0.4037464 -0.6261082 0.032310773 -0.26224387
-1.9457157 0.042644687 -0.71358347 -2.318394 0.111242235 0.19183719 -0.8473391 0.19691952
0.1591265 -1.2812053 -1.22232 -0.23580818 -0.10371566 -1.044406 -0.2928009 -0.05299778
-0.22302143 -1.1921967 -0.6464442 -0.59336686 0.039726987 -1.124209 -0.6944638 -0.85876554
-0.5707927 -0.059414174 -0.77913916 0.029931681 -0.02211748 0.081079595 -0.122813866 -1.2787273
0.5418159 -0.55529284 -1.878963 -0.4190819 -1.3098313 0.2125655 0.07679244 0.15732208
0.19079515 -0.107378006 0.57091814 0.48122817 -0.42669514 -0.43271524 0.031731132 -0.58258706
0.64551675 0.32393053 -0.3183116 -0.572653 -0.080482624 -1.4870253 -1.4660501 -0.08061263
0.33191457 -1.1196859 -0.49999064 -0.105717555 0.76607513 -0.72844154 -0.2634559 0.37443382
-0.05406436 0.0077558984 0.6509889 0.6023255 -0.20852056 0.23853081 -1.9642968 -0.4688244
-1.7837738 -1.1769602 0.26857555 -0.8603308 -0.171323 -0.5409562 0.92765504 -0.08691551
-1.2747637 0.6051306 -1.1199927 0.15934317 -0.15605941 0.032987915 -0.4927438 -0.43221352
-0.5347159 0.36252996 -1.014865 -0.7662532 -0.358178 0.1487642 -0.19995494 -1.1130763
-0.14310749 0.068479456 -0.46808872 -0.7800568 -0.44423217 -0.269668 -1.027494 0.39652666
0.22304691 0.029225903 -0.08654042 -0.6591025 0.17979145 -0.48526624 -0.66463643 -0.8367823
-0.70628643 0.424489 -1.1002481 -1.3773618 -0.31743348 1.3935641 -0.060730882 0.42837963

lstm1.weight_hh_l0 f4 [400, 100]
00000000: aa21 0fbd 1246 bfbe 8d18 823e 2260 913c
00000010: 6fd7 b9bd d3b6 323d ed46 003e b212 a53e
00000020: 0809 723c f1be 3d3f 134b 44bf b9cb 67be
00000030: 73df d9be 638a 22bd 00ff db3e 4240 923d
00000040: dc88 82be b884 53be 9663 6cbd 37d2 723f
00000050: 68f5 3c3e 5810 973c 2965 41be b752 6cbe
00000060: 7002 bbbe 09c6 d3be 3ced c33e 9b3c 2cbe
00000070: 3ac2 1f3e 5aee 0d3e 7f27 593f 6fb3 ecbe
00000080: d39b 003f e83b cb3e a1ff ac3e 2ad4 3ebf
00000090: 46cc b8be e426 d53e aafe edbc 0a3b eb3d
000000a0: 9bb0 0e3f 988f c0be 5f74 df3c 4187 17bf
000000b0: e6ba 7e3e 432d 8cbe cc04 623f 7c6f 1a3e
000000c0: 6ef6 3abe 9686 533e d040 b8be 5cac 863e
000000d0: 1fdf 513e 02f9 03be 0aaf 103d 61fd d7be
000000e0: 07c2 4a3e e324 0a3e 4f87 8ebd 75ae dfbe
000000f0: 3497 4ebe 57df a13c b739 2bbe 069d e63d
00000100: 21ef eabe 7d23 19bc d842 0e3f f2c4 373f
00000110: 8f2e 9cbe 71fb a1be 8940 cf3e 03e5 70be
00000120: e2b1 25bf 0e03 7c3e dbf6 b83e db15 bbbc
00000130: 9a1a acbe 6a27 413d 9b77 8cbe ea62 85be
00000140: b5a2 d23d 0c52 24be 2f9e 103e 31cf 833e
00000150: a9c0 efbe 5d56 97be ab99 c3be 3a0a a93e
00000160: b204 ff3e 7112 cf3c 3285 803e a66b aa3d
00000170: 7b7e dabd 7cc2 023f 6ef9 503d c863 93bf
00000180: 52a2 1fbf 604c f73e 488d fe3e b02d fb3d
00000190: b88f ad3e a21d 1c3e 44d4 bbbe 8d60 e83e
000001a0: 42d1 95be 3cfe 9dbd 6633 a9be aa5e ca3d
000001b0: 05c3 2bbf 3597 f43e a6a0 65bd e958 debe
000001c0: 1a9e b5be 3276 a63e 4323 003f 7b8e fcbe
000001d0: ba8e a8bd a39a b83e 7bca 22be ef49 d3be
000001e0: 8986 8ebe 176b 503f aa5e 87be 2ec4 d43d
000001f0: 3885 543e aaeb 84bc f521 4f3e b2ba c03c
00000200: 8c67 1dbe 8fc8 cb3d 16d6 d13e efeb 833e
00000210: 1fe7 8b3d 99b5 efbd 1f52 9bbc 2349 993e
00000220: a4cd bbbc aa2d cfbe bcab c3bd 82dc 82be
00000230: b494 12bd 190f eebe 2e8a 763e 0178 f5bd
00000240: 132b 99bd 78a7 47be 1cfe 8ebe c8fb f33c
00000250: 5ff9 923e a0bb f23e c22b 47be 8e4d 8ebe
00000260: 7d33 42be bffd 12bf bda6 c3be 232c 2abe
00000270: a889 f63e 8f7e e3bd 298d 62be c13d 1cbf
00000280: c834 a5be 1d09 40bd 453d 8abe b13c ac3e
00000290: e066 e93e 1755 f53e 784c 71be a6b0 c83d
000002a0: f945 73be b2ae 3bbf 7ad8 643d 4887 f83c
000002b0: 1b77 cb3e 3255 17bf 6641 c0be f80c f63e
000002c0: ca82 e53d 8b09 52be 9b0e 0b3e 9b31 a9ba
000002d0: 4458 c13e bedd 233e f9ca 363e 0564 0dbd
000002e0: d9f6 ff3c 05e4 79be c5e9 1b3e 508a 2bbd
000002f0: bd74 c13d 4a27 3fbc ba0c 863f 1c2c 19be
00000300: e002 e0bd 97f9 643e 2b00 cebe a893 de3e
00000310: c8dc 8cbe 6d09 013f 35d1 a53b 875c 9dbe
00000320: 0621 46bd a738 e4bd d88e 843e 5a4b b53e
00000330: 06e2 3bbe 800b 75be 5323 153e 8baf 06bf
00000340: 193c 7abe a5e0 1cbe e7e8 44be 6c9a a63e
00000350: 39f8 313e e2c6 e43d 152a dcbd d424 2bbe
00000360: 4617 803d 7527 97be 1ff4 a13b d76d f23d
00000370: 84e7 063d 32e9 bbbe c21c cebd 044b c33e
00000380: f03b c73d fb52 42be 74d1 a63d 29bf e0bc
00000390: 7556 57be eb72 6dbe 0c99 06bf a4df a53d
000003a0: 03a0 b93e 2a12 6c3e 864d 69be 319e 733e
000003b0: f68b 4c3e 1211 8a3e e670 5b3d 176d f8be
000003c0: a06e c33e 4820 273e e01b 05be 14b3 ddbe
000003d0: e998 a8be a2be d0be aa3c f0be 5cbe 3d3d
000003e0: d611 b53d 0cab a93d fc99 e23d 8f59 6fbe
000003f0: b448 84be b74a 733e c2ec fe3e 8b76 16bf
-0.034944214 -0.37358147 0.25409356 0.017746035 -0.09074294 0.043631386 0.12527056 0.32240826
0.014772661 0.7411948 -0.76677054 -0.22636308 -0.4255329 -0.039682757 0.42967987 0.071411625
-0.2549504 -0.20656097 -0.05771216 0.9485201 0.1845299 0.01844041 -0.18886246 -0.23078428
-0.36525297 -0.41362026 0.38266933 -0.16819994 0.15601435 0.13860455 0.8482589 -0.46230647
0.5023777 0.39694142 0.3378878 -0.74542487 -0.36093348 0.41631234 -0.029052097 0.1148587
0.5573823 -0.37609553 0.02727717 -0.59190756 0.24875984 -0.27378282 0.8828857 0.1508159
-0.18258068 0.20656809 -0.35986948 0.26303375 0.2049527 -0.12887958 0.03532318 -0.421855
0.19800578 0.13490634 -0.06959402 -0.43687788 -0.20174867 0.019759817 -0.16721235 0.112604186
-0.45885566 -0.00934684 0.55570745 0.7178489 -0.3050427 -0.31637147 0.40478924 -0.23524861
-0.6472455 0.2461054 0.36125836 -0.02283757 -0.33614045 0.04715673 -0.27435002 -0.26052028
0.1028494 -0.16046923 0.14122842 0.25744012 -0.46826676 -0.29558077 -0.38203177 0.33015615
0.4980827 0.025277348 0.2510162 0.083213136 -0.106686555 0.5107801 0.051019125 -1.1514826
-0.62357056 0.48300457 0.49717164 0.122645736 0.3389871 0.15245679 -0.36685383 0.45386162
-0.29261214 -0.07714507 -0.33047026 0.09881337 -0.6709445 0.47771612 -0.05606141 -0.43427208
-0.35472184 0.3251205 0.50053805 -0.49327454 -0.08230348 0.36055478 -0.15897553 -0.41267344
-0.27837017 0.81413406 -0.2643941 0.10388981 0.20753944 -0.016225655 0.20227797 0.023526523
-0.15371531 0.09950363 0.40983647 0.2576594 0.06831192 -0.11704559 -0.018960057 0.2993861
-0.022925206 -0.40464526 -0.0955424 -0.2555886 -0.035786346 -0.46495894 0.24076149 -0.119857796
-0.07478919 -0.19497478 -0.27928245 0.029783145 0.2870588 0.47408772 -0.19450286 -0.27793545
-0.18964954 -0.57418436 -0.3821315 -0.166184 0.48151898 -0.111081235 -0.22124161 -0.6103173
-0.3226683 -0.04688369 -0.2699987 0.33640054 0.455863 0.4791648 -0.23564327 0.09799318
-0.23757161 -0.7331344 0.05587051 0.030337945 0.39739308 -0.5911437 -0.37549895 0.4805677
0.11206587 -0.20511453 0.1357979 -0.001290846 0.37762654 0.16002557 0.17850865 -0.034519214
0.031245636 -0.24403389 0.15225895 -0.041879952 0.09446094 -0.011667082 1.0472634 -0.14958233
-0.10938048 0.22360836 -0.40234503 0.43472028 -0.27512193 0.5040501 0.00506034 -0.30734655
-0.048371337 -0.11143618 0.2589023 0.3540905 -0.1834794 -0.23930168 0.14564256 -0.5261161
-0.24436988 -0.1532007 -0.1922947 0.3253969 0.17379846 0.111707464 -0.10750214 -0.16713268
0.06254439 -0.2952229 0.0049424316 0.118373565 0.032935634 -0.3670135 -0.10064079 0.3814317
0.09728229 -0.18976967 0.08145419 -0.027434902 -0.21029074 -0.23188369 -0.5257728 0.08099297
0.36254892 0.23053804 -0.22783479 0.23790814 0.19975266 0.2696615 0.053574465 -0.4852073
0.38170338 0.16320908 -0.12998915 -0.43300688 -0.3292916 -0.4077044 -0.46921283 0.04632412
0.088412926 0.08284578 0.110645264 -0.23374008 -0.25836718 0.2375897 0.49790007 -0.5877463

lstm1.bias_ih_l0 f4 [400]
00000000: a929 22bf 059e adbe d5b9 17be 97cb a6be
00000010: f7e3 c7be 4eb9 c7be e702 37bf 5e7f 05bf
00000020: 668c 88be 432a c0bd 5e1a 05bf 8c43 3dbf
00000030: 21bd 53be 9c28 d7be 2d1a 02bf abf0 80be
00000040: 9899 a0be 490c 98be 9e42 0bbd 93d5 95be
00000050: 9a00 60be 7ef1 f8be 45d7 2abf 05d4 03be
00000060: 8890 003e 13d9 b73e e7e5 82be 9050 29bd
00000070: 04b6 fdbd 91a1 4cbd 78bb 3ebf 6f66 03bf
00000080: 953e 64bf 81f9 cabe 3a83 c5be 9158 0abf
00000090: 8566 89bd 8999 89be 1773 20be 51a3 26bf
000000a0: b021 263e e656 b6be b369 3ebf 6b1b 88bc
000000b0: f0ba 8fbe a6fc 18bf 6df2 1bbe a727 c4be
000000c0: b971 92be d809 e5be d547 e3be 205a c8be
000000d0: f954 46be 6fa8 a8be d86f 56bf 4088 3abf
000000e0: 0241 da3c 1e78 dfbe a021 28be 9b2e 96be
000000f0: 64e5 44bf fb98 0e3c dcc9 babe 3484 56bf
00000100: de5c 4b3a 0d5c d0be 6f6e 113e 0a70 e7be
00000110: da7a 98be 2fa3 31bf b4c0 cdbe 84fd 8ebe
00000120: 4a04 21bf 2265 e0be 1b6f 15bf ebe3 c1be
00000130: dbdd f1bd 0955 58bf 9fb4 c7be f748 0bbf
00000140: e771 05bf 508f f8bd d885 a4be a14c 53bd
00000150: a0c4 4dbf 3f82 cdbe 91b2 b4be 21a3 01be
00000160: 7af3 c7be 8af7 fa3c 1f85 47be 4e5d b3be
00000170: cc97 f1be 0130 08bf 58f1 debe ea6a 77be
00000180: 73f6 c4be 0b47 45bd 603c 4bbf 78a0 f2be
00000190: b13e babe a98a 34bd d48e 33be 8bd6 16be
000001a0: 8a0a 87be e990 29bf 6277 8cbf 9b73 1fbe
000001b0: 0e8d eabe 35b6 08bf f57d f1bd a961 3fbe
000001c0: dc29 1bbe b749 c1be 0415 c23e 7082 21bf
000001d0: 312e 77bf d337 ba3d 9576 dabe 6a43 0cbf
000001e0: 65b0 08bf 65cf 5d3d 897e 13bf c523 36bf
000001f0: e74c d4be 89ad b7be a9c9 78be 58ed e4be
00000200: 5f45 28be 69fb e3bd d2ef 39bf b2d6 3bbf
00000210: 614e 47bf ace0 c53c 062a 873d d7c3 7ebe
00000220: d2f0 aabe b17f 40be 2a65 a8be 4349 debe
00000230: eb4e f4be 92a1 75bf 413a df3f de06 36bf
00000240: e84f 1cbe 01bf 71be d2e9 84be 1f41 a4be
00000250: 1946 22be c535 5fbe 1780 b8bd 4232 92be
00000260: 1f3b cebe 68a8 69be 100d ac3c 4943 473e
00000270: 2805 a4be 2d4a c6be 2bab 73bc 2760 47bf
00000280: 2c3d 3a3c 93b7 d4be afd3 58be 41ba c13f
00000290: d8ff 9cbd 82f6 57be 3970 0cbf a534 60be
000002a0: 3570 61be 3df6 073f 3ba6 4ebe 766a e6be
000002b0: 1a61 2ebf 6451 c5be 3d55 99be dcaf 0ebf
000002c0: bab0 1ebf b204 bbbd e090 79bd 6e07 81be
000002d0: 921d eabe 43f2 ccbe a4e9 00bf 6504 25bf
000002e0: e0f7 1ebf 0d38 a53d 546d c1be b1ca 04bf
000002f0: d3cb 02be 689a a4be 59b9 5cbe c59f a4be
00000300: 3426 dabd 6e34 99bf a8a7 dbbe 522e 40bd
00000310: e2b5 f8bb a294 4c3e 080f 52bf bda8 28bf
00000320: 0f44 863d 55f7 15bc 948c 4b3d 77f7 4a3d
00000330: 9f88 c9bd 8307 9abe 408f 1d3e 5119 c5bd
00000340: 1f90 d9bd d77d 55be 9ec6 b9bc 36c6 01be
00000350: 15f0 eebd b5a7 44be 2395 953d 7feb 253e
00000360: eec5 283d 4211 ae3c 0050 2ebe 64d9 98bd
00000370: 4679 583e 2a95 953d a796 c7bb 8d53 83bd
00000380: 3b11 02be 6c8b 88be b7c2 f4bc ff43 adbc
00000390: a39d 9dbd 5947 c9bd 62d3 233e 19ca b5bd
000003a0: 2f2c 213e 95ff e63d 90f6 b93c 46ed d6bd
000003b0: a11e 06be 8955 70bd f1d3 75be b3c9 ecbd
000003c0: 0389 74be 693c af3d e73b 983e e9b3 cdbd
000003d0: 5d05 a13d b217 00be c667 2e3e 7ea7 9abe
000003e0: b7ad 51be e930 0ebe 7fa7 e1bd 0f6b ae3d
000003f0: 5d13 b9bc c572 3a3b d047 56bd 7af1 473d
-0.6334482 -0.33909622 -0.14816983 -0.32577202 -0.3904111 -0.39008564 -0.71488804 -0.5214747
-0.26669616 -0.09383061 -0.5199336 -0.73931193 -0.20677616 -0.4202317 -0.5082119 -0.25183615
-0.31367183 -0.29696873 -0.033999078 -0.29264507 -0.2187523 -0.48621744 -0.66734725 -0.12873848
0.12555134 0.35907802 -0.25566027 -0.041336596 -0.12388232 -0.04995877 -0.74504805 -0.51328176
-0.8915799 -0.3964348 -0.3857668 -0.5404139 -0.06709007 -0.2687495 -0.15668903 -0.6509295
0.16223788 -0.35613173 -0.74380034 -0.016614636 -0.2807231 -0.5976051 -0.15229197 -0.38311502
-0.28602389 -0.44734073 -0.4439074 -0.3913126 -0.19368352 -0.32941005 -0.8376441 -0.7286415
0.026642326 -0.4364633 -0.16419077 -0.29332432 -0.7691252 0.008703466 -0.3648213 -0.83795476
0.0007757674 -0.4069523 0.14202283 -0.45202667 -0.29781228 -0.69389623 -0.40186083 -0.27927792
-0.6289717 -0.43827158 -0.5837266 -0.378692 -0.11809894 -0.84504753 -0.3900499 -0.5440821
-0.52126926 -0.1213671 -0.32133365 -0.05158675 -0.8037815 -0.40138432 -0.35292485 -0.12659885
-0.39052945 0.030635614 -0.19484375 -0.35032123 -0.47186124 -0.5319825 -0.43543506 -0.24161878
-0.38469276 -0.048163455 -0.79389 -0.47388053 -0.36375955 -0.04407755 -0.17534953 -0.14730279
-0.26375228 -0.6623674 -1.0973933 -0.15571444 -0.4581074 -0.53403026 -0.117916025 -0.18689598
-0.15152687 -0.37751552 0.3790666 -0.63089657 -0.9655486 0.09092679 -0.42668596 -0.54790366
-0.53394157 0.054152865 -0.5761495 -0.7114833 -0.41464922 -0.35874584 -0.24295677 -0.4471233
-0.16432713 -0.11131937 -0.7263156 -0.73374474 -0.7785397 0.024154983 0.06599812 -0.24879394
-0.33386856 -0.1879871 -0.32889682 -0.4341527 -0.4771646 -0.9594966 1.7439653 -0.7110423
-0.15264857 -0.23608018 -0.2595964 -0.32080933 -0.15847053 -0.21797855 -0.09008806 -0.2855397
-0.4027948 -0.22818148 0.021002322 0.19459261 -0.32035184 -0.38728467 -0.014872353 -0.7788109
0.011367124 -0.41546306 -0.21174501 1.5134965 -0.07665986 -0.21090129 -0.5485874 -0.21895082
-0.2201546 0.53110105 -0.201806 -0.45003098 -0.68116915 -0.3853866 -0.29947844 -0.5573709
-0.61988413 -0.09131755 -0.06092918 -0.2520098 -0.45725685 -0.4002858 -0.5035651 -0.6445983
-0.6209698 0.080673315 -0.37778723 -0.5187178 -0.12773065 -0.32149053 -0.2155508 -0.32153144
-0.10651818 -1.1969125 -0.4290135 -0.046919174 -0.0075900415 0.19978574 -0.82054186 -0.65882474
0.0655595 -0.009153207 0.049694613 0.049552407 -0.098405115 -0.30083856 0.15386677 -0.09623969
-0.10623192 -0.20848785 -0.022677716 -0.12673268 -0.11666886 -0.192046 0.07303836 0.16203116
0.041204385 0.021248464 -0.17022705 -0.07463339 0.21140012 0.073038414 -0.006090957 -0.064124204
-0.12701885 -0.2666887 -0.029878004 -0.021150587 -0.076960824 -0.098280616 0.15998605 -0.08876438
0.15739511 0.11279217 0.022700578 -0.10494475 -0.13097622 -0.058675323 -0.2400663 -0.115619086
-0.23880391 0.08556444 0.29733202 -0.10044081 0.07862351 -0.12509039 0.17031774 -0.3020591
-0.20476423 -0.13885845 -0.110182755 0.085165136 -0.022592241 0.0028449756 -0.05231458 0.048814274

lstm1.bias_hh_l0 f4 [400]
00000000: a136 28bf 276f 38be a58b 89be 670f b2be
00000010: 2659 93be a16f bfbe 323c 11bf b704 0dbf
00000020: b650 97be 46e9 d3bd 9f4d 0bbf 6c55 20bf
00000030: c6a2 97be dd52 a3be 652a 0cbf 6add 7ebe
00000040: 6d36 cebe a655 6abe d45b 3abe 9a21 95be
00000050: 4e4a 81be bc5e f7be 230c 2fbf 86c4 ddbc
00000060: ee6f 6c3e 2105 d23e 1e48 97be 332c 9cbd
00000070: 2a1b 64be f470 44be 3dda 40bf c7ff 01bf
00000080: b03b 4cbf 6e0f 02bf d3a4 cebe 702a 10bf
00000090: fc0c bdbd a9aa 31be f401 86be b369 2ebf
000000a0: e8cf d43d 729c debe acdf 2fbf 5375 2fbe
000000b0: 4de7 c1be 8422 1fbf 1a1c 8dbe d3d4 c9be
000000c0: 6fb6 a8be dfe3 9abe 6e02 afbe e3d2 aabe
000000d0: 28e8 12be d3a6 adbe 732b 53bf e081 2cbf
000000e0: 4006 a23d 21df c9be 30f9 9ebd cddf 8fbe
000000f0: c155 13bf 6faf c63d f788 c2be a023 36bf
00000100: e925 7d3c 262b bfbe 3df0 253e 944a f7be
00000110: 65aa a2be 81f3 39bf 7eb0 d8be 3a70 9abe
00000120: e41a fdbe bf00 e0be a105 2cbf 39e4 b3be
00000130: 0848 1fbe a445 74bf 7c54 cfbe 65a9 2abf
00000140: daf8 f2be 9024 0fbe 80e8 b6be 0258 a3bc
00000150: e1be 28bf 3843 0cbf 94f4 98be 5ceb 21be
00000160: cfb9 6ebe bbb3 bebd bef5 5abe 275e e8be
00000170: a78b 01bf 7050 adbe 5cf9 09bf 1b94 38be
00000180: de66 b7be 1c4b e2bd ca8e 3bbf 995d 07bf
00000190: c57c bebe 9faa b93d b132 d5bd 3055 22be
000001a0: 716c 44be 923a 34bf 6a82 70bf 8b1b 9ebe
000001b0: 1710 e6be cb46 01bf 4162 04be 4851 7bbe
000001c0: f077 34be 539a 81be cce3 cd3e ac55 29bf
000001d0: 8a5a 6fbf 45ab 0e3d 2c12 f3be 64cc 30bf
000001e0: 7df7 31bf de9f 283e a602 d8be a5f1 0bbf
000001f0: 63b1 d7be f93e 70be a0df 05be 1cf5 b4be
00000200: 471f 23be 0d7b b9bc b038 40bf 3d60 13bf
00000210: 0a74 2bbf cfaf 3c3e 6755 c93b 5d13 8abe
00000220: c76e b8be 8177 8dbe 3118 83be 5c86 98be
00000230: 8dba 03bf dc5c 5ebf ae56 e63f e162 09bf
00000240: 2bfa 49be 71a5 b6be 8389 4abe 3f12 8ebe
00000250: 724d 32bc 21ea cabe 4346 7bbe 8973 87be
00000260: 82f8 bcbe 6dfb 80be 39d5 e43d 122b 983e
00000270: a3d5 a2be e994 adbe d3fb 6cbc 0f04 23bf
00000280: 383e 333e 9e2e e9be ae14 a7be 82fa b43f
00000290: b73f 47be c6af 76be 4cfc e0be 3de3 47be
000002a0: a4ce 44be fe58 283f e708 2dbe 5929 fbbe
000002b0: c554 39bf 32a3 11bf e8ef 1cbe b461 1bbf
000002c0: 5dc7 3cbf 090e c7bd 748c d1bd 522b 3abe
000002d0: c2ca e8be 102c 90be d9bf c8be 5470 35bf
000002e0: c174 02bf 2397 203e 99a0 75be c915 17bf
000002f0: 0339 78be 2f4a fdbe fb1a 88be b307 d6be
00000300: a366 b6bd c532 9cbf 91f6 b3be 0a08 f2bd
00000310: 2051 d7bd ca25 313e cc11 4dbf 9956 39bf
00000320: 82a7 e73a 3966 13bb 5148 313e a9b0 dbbc
00000330: d3a2 d83c 824f 83be 5273 133e d284 8dbd
00000340: c603 3c3c 96aa 7fbe ca43 23be cab5 28be
00000350: 3681 22be c747 debd eaeb 4d3d df27 6e3d
00000360: 892e 8e3d e913 953d e191 27be 6377 c4bc
00000370: 687c 5e3e 3e67 fe3c 8267 90bd 17c3 0bbe
00000380: 00b0 773d bfcd 86be a0cf bfbc a98b 0f3e
00000390: c862 15be 712a f3bd 8a76 453e c335 00be
000003a0: 90a0 1b3e b0cf 063e 1107 273d cbb5 66be
000003b0: 1e07 01be 9662 c83c b6be 11be 2e0a e7bd
000003c0: a309 8abe ef4d bfbc e4f4 863e 5b33 8ebc
000003d0: 2b3c 723e f9f3 28be f58f 103e edd8 33be
000003e0: 96b7 66be 4031 07bd 0ea1 13be 07f2 0f3e
000003f0: 7a54 0e3c e5b3 b9bd fd04 13be 1d1a 68bd
-0.6570836 -0.18011151 -0.26864353 -0.34777376 -0.28778952 -0.37389854 -0.56732476 -0.5508532
-0.29553765 -0.10347228 -0.54415315 -0.62630343 -0.29616374 -0.31899157 -0.5475219 -0.2488915
-0.402759 -0.22884235 -0.18199092 -0.29127198 -0.25252002 -0.48314464 -0.68377894 -0.027071249
0.23089573 0.41019538 -0.2954721 -0.07625618 -0.22275987 -0.19183713 -0.75333005 -0.5078091
-0.79778576 -0.50804794 -0.40360126 -0.56314754 -0.09230992 -0.17350258 -0.26173365 -0.68130034
0.103912175 -0.43478733 -0.6870067 -0.171346 -0.3787178 -0.6216204 -0.27560502 -0.39420184
-0.32951686 -0.30251977 -0.3418154 -0.3336402 -0.14346373 -0.3391634 -0.82488173 -0.67385674
0.07911348 -0.39428046 -0.077623725 -0.28100434 -0.57552725 0.0970143 -0.3799512 -0.7114811
0.015450933 -0.37337607 0.16204925 -0.48299086 -0.31770626 -0.7263718 -0.42322153 -0.30163747
-0.49434578 -0.4375057 -0.6719609 -0.35135058 -0.15554821 -0.95418763 -0.40494144 -0.66664726
-0.47455484 -0.13978791 -0.35724258 -0.019939426 -0.6591626 -0.5479007 -0.29874098 -0.15812439
-0.23313068 -0.093116246 -0.21382806 -0.45384333 -0.5060372 -0.3385043 -0.5389612 -0.18025248
-0.3582067 -0.11049482 -0.73264754 -0.52877194 -0.37204567 0.090657465 -0.10410059 -0.15852809
-0.19181992 -0.7040187 -0.93948996 -0.3088039 -0.4493415 -0.50498646 -0.12928106 -0.24542725
-0.17623878 -0.25313053 0.40212858 -0.6614635 -0.93497527 0.034831304 -0.47474802 -0.69061875
-0.6951826 0.16467234 -0.4218952 -0.54665595 -0.42127523 -0.23461522 -0.13073587 -0.35343254
-0.159299 -0.022641683 -0.750865 -0.5756872 -0.66973937 0.1842644 0.006144214 -0.26967898
-0.36022016 -0.27630237 -0.25604394 -0.29790008 -0.5145653 -0.8686044 1.7995203 -0.536665
-0.19724338 -0.35673097 -0.19779019 -0.27748296 -0.010882722 -0.3963175 -0.24538521 -0.26455334
-0.36908346 -0.25191823 0.111734815 0.2972036 -0.31803617 -0.33902672 -0.014464336 -0.6367807
0.17504203 -0.4554338 -0.32632965 1.4138949 -0.19457899 -0.2409049 -0.43942487 -0.19520278
-0.19219452 0.6576079 -0.16897927 -0.49054983 -0.72394973 -0.5688964 -0.15325892 -0.6069596
-0.73741704 -0.09719474 -0.102318674 -0.18180588 -0.45467192 -0.28158617 -0.39208868 -0.70874524
-0.509594 0.15682654 -0.23987044 -0.59017617 -0.24240498 -0.4947066 -0.26583084 -0.4180275
-0.08906295 -1.2202994 -0.35149053 -0.118179396 -0.1051352 0.17299572 -0.8010528 -0.7239776
0.0017673823 -0.002249135 0.17312743 -0.026817637 0.026444828 -0.25646597 0.1439946 -0.06910099
0.011475509 -0.24967417 -0.15943828 -0.16475597 -0.15869603 -0.10853534 0.050273813 0.058143493
0.069424696 0.07279188 -0.16364242 -0.02398271 0.21727145 0.03105509 -0.070509925 -0.1364864
0.06047058 -0.26328847 -0.023414433 0.1401812 -0.14588463 -0.118733294 0.192835 -0.12520508
0.15197968 0.13165164 0.040778223 -0.22530286 -0.12600371 0.024461072 -0.14232907 -0.112812385
-0.26960477 -0.023352591 0.26358712 -0.017358473 0.23655765 -0.16499318 0.14117415 -0.1756322
-0.2253097 -0.033005953 -0.14416906 0.1405717 0.008687133 -0.09067515 -0.14357372 -0.05666553

lstm2.weight_ih_l0 f4 [400, 100]
00000000: af10 343e 39a9 44bf ce89 af3e 88fe 6c3f
00000010: 8b43 21bf 027d da3e 562f 29bf aa13 34be
00000020: e8f8 a5be b22d 053f fd4c 10bf 92c1 8a3f
00000030: d430 0bbf 3557 253c c2d6 c7bd 4e3b 8e3b
00000040: 1980 65bf 7516 f43e df7c c83e f2aa 593f
00000050: 558f 65bf aa60 31bd 5b77 4f3f 6af3 36bd
00000060: fbb5 143f f5de fe3e 33fa ef3d 751e 30bf
00000070: 2b86 373f f16d ad3f d69b 2bbe 4fe6 193f
00000080: d2f5 c2be 0f8b c2bd ad4d f5be 7cee 243e
00000090: 6bc9 5c3e f8d9 28bf 1d2b 6abe 70cc 413f
000000a0: 7af4 603f 09a2 3bbf e37c 39be bac9 e0be
000000b0: 0d39 24bf e372 5bbf 519a 18bf c407 7b3f
000000c0: 57e4 143e a54f 3b3f b396 0d3f 2d61 5dbe
000000d0: 4a40 713e 7b5b 38bf f6cc 2bbf 3a41 0f3e
000000e0: b26e e23e 1a5d e9bd 9aa7 fabe 9fce 37bf
000000f0: 5ac4 803d 1f97 9c3f a143 a23f 9e88 5dbf
00000100: f22a 7cbe 17c3 833f c265 a3bc fae1 5b3f
00000110: 7885 09bf 7a45 92be 350f 123f 4e0f 2cbe
00000120: 76ae c0be a564 64be 55b9 a1bd 8d54 423e
00000130: ee90 f4be e87e 29bf 1739 3f3e be2c 363e
00000140: 99ba 31bf 797d 3d3f b2e4 1b3f be3a 143f
00000150: 5624 a73e 1cf6 d8be 256c 15be 821b cbbe
00000160: 8ff1 27bf 977a 503e 5e43 6a3e 2b89 8b3e
00000170: 222e cd3d 6856 be3d 1626 b93d a2f8 23bf
00000180: 081d 8fbf e054 57bf 8647 9b3e 5bdb 2a3f
00000190: b3f2 fcbd 35ff 0c3f 470c 23bc 7665 223f
000001a0: fa00 39be 54d8 febd 164c 5c3e 835f 903d
000001b0: a7e6 523d b5a8 0b3e 5647 a9bd 9080 2e3e
000001c0: bc38 953d 9622 af3d 9f81 0fbf 6c8f b3be
000001d0: 755b 17be 9ed9 6d3e 09e5 34be 9d6c b13e
000001e0: f1c1 1bbf 4bc2 43bf 48ef 033f 2d2f 983e
000001f0: d980 f73d 71e1 853f 86f1 d6be 5127 ce3e
00000200: b513 413f d229 153f 6b32 91be 1d71 7d3f
00000210: 2a45 01be 296a 83bd f9c1 c8bd c6f6 5f3e
00000220: d405 25bd 1668 2bbf b540 d73e 28f1 6d3e
00000230: f096 273e 6b18 cbbe 6a0e edbe 77df 56be
00000240: 5ade 91bc 5702 cebd e28f 0abd f029 3b3f
00000250: e23d a03e a468 e0bd a6a7 e53e 5061 313e
00000260: f766 47be cb72 6b3e eaa1 4f3e 959f c23e
00000270: 6b4f 6a3b 842f de3e 907b 76bf 44c0 9cbd
00000280: e53e 5e3f 79de 183f 482a 063f f1ad 2ebf
00000290: 9423 6cbe b77f db3b c349 50be b57c 14be
000002a0: 5251 73bc 8a03 033f ecad 313d 8558 bfbd
000002b0: e848 c2be 9157 673d f3c7 db3d 8341 9b3e
000002c0: 9fe0 cdbe 8e60 3dbf b22f 18be 75ae c13c
000002d0: cd94 9cbe 49d8 023f dabd 2dbe aec8 923e
000002e0: e54e fd3d 7558 ee3e 230e e93e c18e 87bf
000002f0: 9e72 88be f2a3 51be 472b c23d 9e72 84bd
00000300: edf9 86bc 8233 b53e 996e 9d3e 690e 0fbf
00000310: d310 67bd b727 30bf e2bd fbbd d4f0 c0bd
00000320: a36e f83e 5f6c 043f 223b 4dbf 62b4 95be
00000330: a406 563e 0eba 473f 8577 c0be 1fa0 b03e
00000340: 776e 33bf 573b 063f d201 d73e 3fc0 613e
00000350: da8b 5f3e f4a2 b33e 0535 1cbf 7635 01bf
00000360: 09d1 173e 2e52 45be 23f5 13be 9350 66be
00000370: 09a9 a1bf 9cb0 533e e93c 1bbb 6dea 4ebe
00000380: 8e8e 7e3e 42f9 9d3e 561e a7be 0d96 f5be
00000390: d53d dc3e cb3c c9bd 0bb7 8bbf 2290 b93e
000003a0: 14c0 61bf bdd0 2ebe 004d 9ebe 7ac0 ad3f
000003b0: add2 553f 54c1 523f a74b f83e 9370 a93e
000003c0: 4d10 1b3f ca6a d5be e672 55bf f318 ea3e
000003d0: e3a0 f6be cfff 7bbc 99f0 89bf ee87 7c3f
000003e0: 948f 01be eff9 00bd c8f3 4a3f d8b3 b1be
000003f0: 0a59 3d3e 18b7 ef3d 357d babe da20 9e3e
0.1758449 -0.76820713 0.34284824 0.92575884 -0.6299369 0.42673498 -0.66087854 -0.17585626
-0.32416463 0.5202285 -0.56367475 1.0840323 -0.5437138 0.010091593 -0.09757759 0.0043405658
-0.89648587 0.47673383 0.3915777 0.85026467 -0.8967183 -0.043305077 0.81041497 -0.04466573
0.5809018 0.49779478 0.117176436 -0.68796474 0.716891 1.3549176 -0.16758665 0.6011705
-0.3807817 -0.094991796 -0.47910824 0.161066 0.2156121 -0.65957594 -0.22868009 0.7570257
0.8787304 -0.7329412 -0.18114047 -0.43903905 -0.6414955 -0.8572218 -0.5961047 0.98058724
0.1454023 0.731684 0.55308074 -0.21619101 0.2355968 -0.7201459 -0.6710962 0.13989726
0.4422508 -0.11394711 -0.48955995 -0.71799654 0.06287451 1.2233618 1.2676889 -0.86536586
-0.24625757 1.0293912 -0.019945983 0.8589169 -0.5371928 -0.2856863 0.57054454 -0.16802713
-0.37633103 -0.22304018 -0.078966774 0.18977566 -0.47766823 -0.6620927 0.18674122 0.17790505
-0.6942535 0.7401958 0.60895836 0.57902133 0.3264491 -0.42375267 -0.14592035 -0.39669424
-0.65602964 0.20359264 0.22877261 0.27253088 0.10018565 0.092938244 0.090404674 -0.6405126
-1.1180735 -0.84113884 0.30328006 0.6674096 -0.12350979 0.55076915 -0.009951658 0.6343607
-0.18066779 -0.12443605 0.215134 0.070494674 0.0514895 0.13638575 -0.082655594 0.1704123
0.07286212 0.085515186 -0.5605716 -0.3507036 -0.14780982 0.23227546 -0.17665495 0.34653178
-0.60842806 -0.7646834 0.5153699 0.29723492 0.120851226 1.0459424 -0.41981143 0.4026437
0.75420696 0.5826694 -0.28358778 0.9900072 -0.1262404 -0.06416733 -0.09802622 0.2187148
-0.04028876 -0.669557 0.42041555 0.23236525 0.16366172 -0.39667067 -0.4630006 -0.20983683
-0.01780622 -0.1005904 -0.033828624 0.73110867 0.31297213 -0.109574586 0.44854468 0.17322278
-0.19472872 0.22993009 0.20276609 0.38012376 0.0035752903 0.43395627 -0.9628229 -0.07653859
0.8681472 0.59714466 0.52408266 -0.68234164 -0.23060447 0.0066985744 -0.20340638 -0.14500697
-0.014850931 0.51177275 0.043378755 -0.09343056 -0.37946248 0.056479994 0.10731497 0.3032342
-0.40210435 -0.73975456 -0.14861944 0.023642758 -0.30582276 0.51111275 -0.16966954 0.2866873
0.123685636 0.46551862 0.45518598 -1.059044 -0.26649946 -0.20472696 0.09480911 -0.06467174
-0.016476596 0.3539086 0.30748442 -0.55881363 -0.05641253 -0.688106 -0.12292077 -0.09420934
0.4852191 0.5172786 -0.80168355 -0.29239184 0.2090097 0.7801827 -0.37591186 0.34497163
-0.7009043 0.52434295 0.41993576 0.22045992 0.21830693 0.3508526 -0.610184 -0.504722
0.14825834 -0.1926963 -0.14448981 -0.22491674 -1.262971 0.2067284 -0.0023687428 -0.20206614
0.24859068 0.3085423 -0.32640332 -0.47966042 0.43015924 -0.098260485 -1.0915235 0.36242777
-0.8818371 -0.17071815 -0.3091812 1.3574364 0.8352459 0.82326245 0.48495218 0.330937
0.6057175 -0.41683036 -0.83378446 0.4572216 -0.48169622 -0.015380814 -1.077655 0.9864491
-0.12652427 -0.031488355 0.7927823 -0.34707522 0.18490997 0.11704844 -0.3642365 0.3088444

lstm2.weight_hh_l0 f4 [400, 100]
00000000: cdc3 c13e 686d 8fbe e7e7 1ebf 6407 ee3d
00000010: 4645 a3bc 0689 44be 4054 983e 9703 ba3e
00000020: 316b 6fbd 2de0 84be 5b15 8c3e c054 a53d
00000030: 3ab0 57be 743a 21bf 07a2 36be ae91 de3c
00000040: b370 153e 4f05 b7be 3b75 703e cfab 303f
00000050: 93e2 cebd ef31 c9be 0cdf f8be 4009 fa3e
00000060: 165b 90bd 2c3a b93c 8432 bb3e 6f02 6dbe
00000070: 5799 e93c 6090 9c3e bcc2 da3c 19f8 623f
00000080: b1c4 3e3e 97e3 0e3e 8ab0 5bbe 612e 563e
00000090: 37df b43e a26c 8e3d 779b 91bf 93d7 6bbe
000000a0: 4995 38be c480 4a3e 0ce0 0c3f 361c eabe
000000b0: 0e7e 67be cc03 303f 403c 1fbf 7714 41be
000000c0: 67b0 c73e db03 c5be 2381 013f 0173 14bf
000000d0: fe60 8abd 305c 9d3d f08a e13e f544 343f
000000e0: cf6d 0b3b 2e6d 793e 9bb7 dfbc 73ae 5e3e
000000f0: fc28 90bc 5066 733e 0a83 6f3e aeba 3cbe
00000100: c654 2cbf 604b 09bf b111 27bf 1685 a8be
00000110: 8990 3ebe b93c 98be 1650 833d 2005 7bbe
00000120: a6d7 77be 0cc8 00be 0cc3 2d3e 015c dabe
00000130: be60 523d 1306 3dbe b299 e93e 4155 463f
00000140: fa61 a93e d70b c23d 230b 6c3e a83a dc3e
00000150: fe82 8ebe 457d 2abe 4275 d2bd 4aef d8bd
00000160: b2cf c53e caee 483d 7563 82be 3e7f 773e
00000170: 8d26 e53e 65ec 943e c703 ce3e 0ffa c5be
00000180: 7aa1 a73e adf0 ec3b 84b2 5dbd 5663 ba3d
00000190: b42f 24bf c650 c93f 2447 a5be 1768 b83e
000001a0: 6bad d83e e07f 103e a712 163e 8bee f93e
000001b0: 3392 913f 2d22 af3f db72 c8be feb9 273f
000001c0: f8db 813e 0d21 003f f96e 57be dcdc 843e
000001d0: e773 2dbf 0190 663c f77d 61bf 2fc4 d1bd
000001e0: 5db0 0fbf 39d0 e0be b3f7 dabe 5d1d 88bf
000001f0: 5080 c8be 6498 323f ae1a b93d 2c5a 8dbe
00000200: a14b ccbf 35c8 1a3f e1bb 753d 88df 45be
00000210: 4d16 94be 51f3 603f 7491 053f 6d66 1abe
00000220: f2d7 15bf 4889 8f3f 049f 9a3e 36ff b4be
00000230: b615 8dbd c6d2 9fbe 2973 6dbe 7217 27bf
00000240: 4929 fd3e d632 7b3f 17a8 843e 88f3 da3d
00000250: 74e7 283d 8e1a 263f 5d53 1abe 82f4 183d
00000260: 66aa 973d 75b4 9b3e d872 043f 1ec4 323f
00000270: 0020 023f 28ec c33f 657a 6d3f 606b cabc
00000280: 66cf b8bf b128 b43e 25a8 533e f3ed ab3f
00000290: b7d5 fe3e e335 7fbf f7ca c5be baa7 5cbf
000002a0: 2d2f 4e3e 8a3b 1d3f b9aa f9be 7df6 11be
000002b0: e645 ffbe 4010 cabd 5e38 efbe 99f2 083d
000002c0: fb0b 07bf 409d 62bf 9b07 8a3c a5dc b53c
000002d0: a46b 403d ca37 47bf b7c9 42bf 7914 82be
000002e0: f4a8 7dbe 03d5 45bf bb77 6f3f ce54 ba3f
000002f0: 1053 4c3e 3e07 323e 4db4 5cbe 78ba 523f
00000300: 96f6 c23d 4339 4bbe 0ee7 393f 5326 c33e
00000310: 7eb4 3c3e bc91 ec3e cac1 8d3f 0dae 633f
00000320: e465 1f3e d8ad 98be e588 a83d c168 b2bd
00000330: 6b75 b3bd fe20 093e 6a3d 093f 46be 2bbf
00000340: 3892 2ebe b79a 393e 1c7e 5e3e 246a c0be
00000350: 5cad 93be f5ee 9abe 34f0 3b3e 492b 773d
00000360: af6d 74be e610 a3bc 0b34 183f 5361 07bf
00000370: f413 e53d 3498 b63e af96 313f 8013 2bbd
00000380: 8793 5a3e dd74 b2be 7ee0 19bf 15c8 33bf
00000390: 81bb b53e c4c3 d23d d7ec 0a3e bcb7 a63d
000003a0: 285a cfbd eb26 01be 6eb4 c03d d242 1cbd
000003b0: 7d6f 62be 996c b7be fbad 703d 3669 2dbe
000003c0: 846c 32be 54fc 02bc e1e3 40bd 3a22 97be
000003d0: 3028 a03e 85cf 553f 73dd fdbb 7146 873d
000003e0: e5d6 97be 05b6 c2bd 91c4 bdbe b51b ddbe
000003f0: b2a6 9abc 393e 67bd b4b3 0c3d aa6d d7be
0.37844697 -0.28013158 -0.62072605 0.116225034 -0.019930493 -0.19192895 0.29751778 0.36330864
-0.058451835 -0.25952283 0.27360043 0.080728054 -0.21063319 -0.6297982 -0.17835246 0.027169075
0.14593773 -0.35746238 0.2348222 0.6901216 -0.10101809 -0.3929591 -0.4860767 0.48835182
-0.07048623 0.022610746 0.36561978 -0.2314546 0.028515501 0.305789 0.026704185 0.88659817
0.1862972 0.13954006 -0.21454063 0.2091613 0.3532655 0.06954314 -1.1375569 -0.23031454
-0.18025698 0.19775683 0.5502937 -0.45724648 -0.2260668 0.68755794 -0.6220131 -0.18855463
0.39001772 -0.38479504 0.5058767 -0.5798798 -0.06756781 0.07683599 0.44051313 0.7041772
0.0021275168 0.24358055 -0.02730923 0.21746235 -0.017597668 0.23769498 0.23389831 -0.18430588
-0.67316854 -0.5363064 -0.6526137 -0.32914037 -0.18609823 -0.29733828 0.064117596 -0.24513674
-0.24203357 -0.12576312 0.16968936 -0.42648318 0.05136179 -0.18459348 0.45625073 0.7747384
0.33082563 0.094749145 0.23051123 0.430135 -0.27834314 -0.16649349 -0.102762714 -0.10592516
0.3863502 0.049055852 -0.25466505 0.24169633 0.44755974 0.29086605 0.40237257 -0.38667342
0.32740384 0.007230839 -0.054125324 0.09100978 -0.6413529 1.5727775 -0.32280838 0.36016914
0.42319807 0.1411128 0.14655553 0.48814806 1.1372741 1.3682305 -0.39150128 0.65518177
0.25363135 0.5005043 -0.21038426 0.25949752 -0.6775498 0.014072419 -0.8808283 -0.10242497
-0.56128484 -0.4390886 -0.42767105 -1.0633961 -0.39160395 0.6976378 0.09038292 -0.27607858
-1.596058 0.6046174 0.05999363 -0.19323552 -0.28923264 0.8787127 0.5217507 -0.15078135
-0.5853263 1.121377 0.30199444 -0.3535096 -0.06888907 -0.31215495 -0.23188461 -0.6527015
0.4944556 0.98124444 0.25909492 0.10690981 0.041236356 0.6488427 -0.15070863 0.037342556
0.07405548 0.30411115 0.5173774 0.698305 0.5083008 1.5306444 0.92764884 -0.024709404
-1.4438293 0.35187295 0.20669611 1.3431991 0.49772426 -0.996916 -0.38631412 -0.8619343
0.20135184 0.61418974 -0.48763064 -0.14254184 -0.49858016 -0.09866381 -0.46722692 0.033434484
-0.52752656 -0.88521194 0.01684933 0.022199938 0.046977654 -0.778195 -0.7608904 -0.25406244
-0.24771482 -0.77278155 0.9354207 1.455713 0.19953561 0.17385575 -0.21553154 0.8231578
0.09519689 -0.19846062 0.72618186 0.38115177 0.18428227 0.46204937 1.1074765 0.88937455
0.15566212 -0.29820132 0.082292356 -0.087113865 -0.0876263 0.13391492 0.53609335 -0.6708721
-0.17047966 0.18125425 0.21727794 -0.3758098 -0.288432 -0.30260435 0.18353349 0.060344014
-0.23869966 -0.019905519 0.5945441 -0.5288288 0.111854464 0.35662997 0.6937055 -0.041766644
0.2134534 -0.34854785 -0.6010817 -0.70227176 0.35494617 0.102912456 0.1356691 0.08140513
-0.10124618 -0.12612502 0.09409414 -0.038149662 -0.22112842 -0.3582504 0.05875967 -0.16934666
-0.17424208 -0.00799473 -0.047092322 -0.295183 0.3128066 0.83519775 -0.007747346 0.066052325
-0.2965614 -0.09507374 -0.3706403 -0.431852 -0.018878315 -0.056455825 0.034351066 -0.42075855

lstm2.bias_ih_l0 f4 [400]
00000000: f520 b0bc 8772 24be 7d82 1abe 4224 10bf
00000010: 9e9a 16be 3c94 a4be fd15 a5be d676 02bf
00000020: 28aa d0be eee0 8ebe eb71 183c ab72 8ebe
00000030: 5a62 dfbe 5ea8 b7be b6cb 7abe 2cab 4bbf
00000040: 5156 dabe 56bc 95be d5d7 93be 41b1 61be
00000050: e623 b7be babb a6be baf1 08be a6dc 85be
00000060: a37f 35be 01e0 a6bd 6aa8 733d 3d4e 9abe
00000070: 091d febe e9bc 94be 288d 54be 57eb b0be
00000080: 14b5 29be 9431 a4be ec13 14bf c0fc fabe
00000090: 4619 1bbe 0aa5 46be a8cb 0a3d 7747 11be
000000a0: a18f 0bbf 883b 69be 7e07 e4be 6f28 06bf
000000b0: fc14 95be d0a6 14bf d2bf b7be ad0a 7cbe
000000c0: 2fa5 e8bd cb8c c0be 0109 443d a3cf babe
000000d0: f6fd 86bc d70d b4be 5a0c 02be b620 8abe
000000e0: 9881 69be 554c b8be dde5 d1be d05a a4be
000000f0: b05f 59be de22 e3be fb72 f6be 5d0c 8dbe
00000100: 1e54 80be 2771 a4be 32cd 6abe 54dc 24bf
00000110: 560e 3fbe d526 92be 4f13 a6be 2e1c 03be
00000120: 2562 aabe 48a7 09be f164 dbbe 943f 02bf
00000130: 0fa3 10bd 8f97 0ebf fe94 52be a952 e1bd
00000140: ba5c 6abe cb22 febe 9d29 48be 07b4 9bbe
00000150: e755 1cbe eb01 9abe f62a 25bf 9583 febd
00000160: adfa 3bbe b805 a1be 98c9 fbbe 4658 123c
00000170: bd6d 62be f1b3 1bbe 93a2 47be fa29 cbbe
00000180: 8f03 53be 78f6 b8be ed7c febe 04ce 8fbe
00000190: 23b0 ce3d c61e b03f 4a94 8d3e e540 75bd
000001a0: 9bb7 933f 019d 623f 6359 393e 764c 2e3f
000001b0: 2a0b 083f 8a02 cd3f 74c9 ccbd 661b e63f
000001c0: b838 bf3e 3560 81bf 9609 863e 0a78 fd3d
000001d0: 92de 233f a1e6 d1be bda0 bd3f fea7 633f
000001e0: 8a09 c63e 9f88 713e 5e37 e9be 8f80 ae3f
000001f0: 3704 a03f 6e65 80be 76f4 08bf d212 063f
00000200: 7b06 6f3f c2a5 f13e ebf6 843e 62e7 113f
00000210: 1c4a cd3e 8e20 8c3d 6d2e 55be fcd7 953f
00000220: bccd 103e dc93 a03f 72e0 88bf 72c9 553e
00000230: c711 9fbe 4fa1 9c3f 7daa 223e b7bf 0cbe
00000240: 20d8 9d3f 91fc 14be 039d 053f 66c6 533e
00000250: b22b 223e c46a 203f ccfc e2be 3153 d93f
00000260: a629 81be b41c f63f 9920 8d3f 1c4a 8f3f
00000270: 8b58 093d 108b 693f 9f42 de3e 0559 b93f
00000280: 11f8 0d3f 0a37 193c f6be 303f dbf7 c73e
00000290: 5908 b53f 5312 e73e 5984 5c3e 7f7a 2c3f
000002a0: 0de1 3f3e 6c78 493f 98a2 993e 6a56 503f
000002b0: 21ae 05c0 a78a 543e 8abb 243e 846c 043f
000002c0: db0c 713e a681 52bf 87cf 3c3d e572 7cbe
000002d0: 7c5e 8c3e caac 313f d0e5 093f 88d2 cf3e
000002e0: c000 afbe fcfe a93f 43ed 4c3f d95e e93e
000002f0: ebc9 d4be 6542 6d3e 9428 773f 79bb 353d
00000300: 4ef5 a2be 9b72 1fbe e7e3 b53f 9a4a 6a3f
00000310: 6534 823d 25af ec3e 7b4f 0e3f c892 143f
00000320: 406b 273d 3464 8cbe 05da f1bd 08b9 c73d
00000330: aa78 2c3e 77f5 c2bd 88d9 c33e 00c0 27bd
00000340: 2757 94bc 093e e1bd 1583 16be ed97 c53d
00000350: 1306 e8bd 099b 993e 8a9c 33be e3a5 99bd
00000360: dd2d 963d 737b f43d 9bc0 45bd 7b17 1b3e
00000370: 5cef 1a3e 3d00 17be a07e 28be 922a 693e
00000380: 8da4 31be afdb d23b 15e7 fcbe ee58 65be
00000390: 5149 703e 2363 08bf c7e2 eb3d fbc5 483e
000003a0: 3200 72bd 1aa5 a8be 23a7 793d 79a8 c63d
000003b0: 75c1 a63e 2f8e 2a3e 783d 163f cad9 e03d
000003c0: 619b 2ebd 9f6f dabc 4e3f f1bb c95f b83e
000003d0: 7d2c 41be bf71 b9be ef6c 77be 11d2 463d
000003e0: 9fde 22bd 4da1 2b3d 34dc a13d 59eb 00be
000003f0: bab3 7c3d 884c 19be 8658 1bbe 7e44 90be
-0.02150009 -0.16059314 -0.1508884 -0.56305325 -0.1470742 -0.32144344 -0.32243338 -0.5096258
-0.4075482 -0.27905983 0.009304504 -0.2782186 -0.43629724 -0.3587064 -0.24491772 -0.7955806
-0.4264398 -0.2924525 -0.28875604 -0.22040273 -0.35769576 -0.325651 -0.13373461 -0.26144904
-0.17724471 -0.08148194 0.059486784 -0.30137816 -0.49631527 -0.29050377 -0.20756972 -0.3455455
-0.16572982 -0.32069075 -0.578429 -0.49020958 -0.1514636 -0.19398895 0.033885628 -0.14187418
-0.54516035 -0.22776616 -0.44536966 -0.52405447 -0.29117572 -0.58067036 -0.35888535 -0.24613447
-0.11359631 -0.37607417 0.04786015 -0.3648654 -0.01647852 -0.3516681 -0.12700024 -0.2697808
-0.22803342 -0.35995737 -0.40995684 -0.32100534 -0.21227908 -0.4436254 -0.48134598 -0.27548495
-0.25064176 -0.32117578 -0.22929838 -0.64398694 -0.18657812 -0.2854525 -0.32436606 -0.12803718
-0.33278003 -0.13442719 -0.4285045 -0.5087826 -0.035311755 -0.5570001 -0.20564649 -0.11002094
-0.22886935 -0.4963592 -0.19547124 -0.30410787 -0.15267144 -0.30079588 -0.6451868 -0.12427441
-0.18357344 -0.31449676 -0.4917724 0.008932179 -0.22112174 -0.15205361 -0.19495611 -0.39680463
-0.20606826 -0.3612554 -0.49704686 -0.28086865 0.10092189 1.3759391 0.27652198 -0.05987634
1.1540407 0.8852082 0.18100505 0.6808542 0.53142035 1.60164 -0.09999362 1.7977111
0.3734796 -1.0107485 0.26179188 0.12376411 0.6401149 -0.40996268 1.4814678 0.8892821
0.38679153 0.23587273 -0.45550054 1.3632983 1.2501286 -0.25077385 -0.5349802 0.5237247
0.93369263 0.47196776 0.25969633 0.5699369 0.40095603 0.06842147 -0.20818491 1.1706538
0.14140981 1.2545123 -1.0693495 0.20877627 -0.3106825 1.2236727 0.15885349 -0.13745008
1.2331581 -0.14549471 0.52192706 0.20681152 0.15836981 0.6266291 -0.44333494 1.6978513
-0.25227088 1.922751 1.1025573 1.1194491 0.033531707 0.9122782 0.43410203 1.4480292
0.55456644 0.009351501 0.69041383 0.39056286 1.4143173 0.45131168 0.21534862 0.67374414
0.18738194 0.78699374 0.30006862 0.8138186 -2.088753 0.20756017 0.16087165 0.5172808
0.2354006 -0.8222908 0.04609635 -0.24653204 0.27415836 0.6940428 0.5386629 0.4059031
-0.3418026 1.328094 0.8004953 0.45580176 -0.415603 0.23169859 0.9654629 0.04436824
-0.31827778 -0.15571062 1.4210175 0.9152008 0.0635765 0.46227375 0.5559003 0.5803647
0.040873766 -0.274202 -0.11809162 0.09752089 0.16842905 -0.09519475 0.382519 -0.04095459
-0.018107964 -0.109981604 -0.14698441 0.09648118 -0.113292836 0.30001095 -0.17540184 -0.075023435
0.073329665 0.119376086 -0.048279386 0.15145676 0.15130371 -0.14746185 -0.16454554 0.22770146
-0.17347927 0.0064348797 -0.49395052 -0.22397205 0.23465468 -0.5327627 0.11517864 0.19606774
-0.059082218 -0.32938462 0.06095041 0.09700102 0.3256947 0.16655801 0.58687544 0.1097904
-0.04262865 -0.026664553 -0.007362283 0.36010578 -0.18864627 -0.36219594 -0.24162649 0.04854018
-0.03976309 0.041901875 0.079033285 -0.12589778 0.061694838 -0.149706 -0.15170488 -0.28177255

lstm2.bias_hh_l0 f4 [400]
00000000: 4709 dfbd a53e 34bd 40fd f4bd a25c 1fbf
00000010: b809 59be 369c a8be 66a6 b4be 0d39 c2be
00000020: fafa b3be eabb 8abe fa06 64bd 7f62 afbe
00000030: a415 a1be 79cb d7be 3036 1abe e42a 3bbf
00000040: ddbc dbbe ac04 22be 2aca 5bbe 6c6c a6be
00000050: 33ed 55be 841f 46be dadf b5bd a41c 67be
00000060: 932e 90be 2f67 a53b efe0 8b3c 0480 a4be
00000070: 4b72 a8be 6514 a8be b749 51be 2e32 b6be
00000080: 30d9 92be a324 abbe 0242 d3be 9c8b babe
00000090: 79d9 e6bd 21bd 5dbe c2a3 bf3d df0b 3abe
000000a0: d2e6 06bf 4dbe b5be 69b8 e6be 24fc 1fbf
000000b0: 879e 67be 740e 20bf 9764 c9be 4ec6 47be
000000c0: 9caa 0fbe 881c e1be caab 4c3e 99f0 7cbe
000000d0: a708 fbbd 021f a8be b1fc 07be 8fc6 76be
000000e0: f087 56be 66c1 c8be 9d39 8dbe f3e5 dabe
000000f0: 9b38 efbd 77ac 03bf 840e c0be 290d cbbe
00000100: 178d 9cbe b5d5 bfbe 3272 41be 42f1 25bf
00000110: 6573 5fbe c52d 17be c059 5cbe 2054 7ebe
00000120: d0eb c6be c320 84be e665 afbe 0489 e5be
00000130: 1dc4 e43c 5c9a 12bf ccf1 77be 9721 44bd
00000140: dee9 9dbe ea7a 0abf 130c 24be 48a2 c3be
00000150: f643 92be b484 a9be cce4 24bf bd5a 15be
00000160: cfec d3bd bf53 8ebe cb92 eabe 9b97 993d
00000170: 7fb8 bcbe 35f1 6abe 8b25 5bbe 6fc9 9dbe
00000180: e62c 38be cff6 9bbe 61ac ecbe a4b1 c2be
00000190: 95be 093e 175e b03f c645 bd3e acba 19be
000001a0: 71f6 8b3f c507 4a3f 0639 353e 0b41 363f
000001b0: 75ac e13e e18a c93f 23af 0dbe ecab ec3f
000001c0: fc91 a83e 2cba 83bf de26 6b3e 6014 903d
000001d0: 23d2 283f 2cb5 c5be 3225 ab3f 0827 7d3f
000001e0: 5942 c63e 1b1c b03e a04e 09bf 6d38 ba3f
000001f0: 8aff b13f 120f c9bd 17e9 09bf 0ad9 233f
00000200: a801 5f3f 644c ee3e 2df1 723e f535 f53e
00000210: 27c3 ce3e 42b1 983d 4e8d 5cbe 6daa 953f
00000220: 4aff 503e a6b5 a23f f533 80bf 4b95 063e
00000230: fdd1 cebe 1e84 983f 35ae cc3d ec3a 29be
00000240: a6aa aa3f 5a4b 46be 1adc 0a3f 0ace 533e
00000250: f71f 383e 0efb 253f 4124 01bf 3f24 ca3f
00000260: 27de babe 6647 f23f 5072 7e3f 5da7 843f
00000270: 5dbe 1c3d ab94 6c3f 627c 033f 2575 b23f
00000280: a29a 103f 6682 9cbd a354 133f 2b89 e63e
00000290: 382a a83f a397 f23e ec99 7a3e 06a8 213f
000002a0: 5776 833e 9ec5 393f 7643 9d3e f749 463f
000002b0: 3e73 03c0 32c1 f53d 3cad 4b3e 4504 083f
000002c0: 75b2 1e3e 46b7 31bf bb41 e93d a135 8fbe
000002d0: 0185 ad3e ec2a 3e3f 98d6 d83e 84f1 d63e
000002e0: 5011 a2be a754 9b3f bf4a 333f a0bb ac3e
000002f0: 5a6a d7be 8843 a73e df48 723f 64b8 29bd
00000300: 62cb 00bf 7da5 80be 03af c33f 6e22 6c3f
00000310: ec2b 183e ce33 cb3e 6480 f93e a23e 1b3f
00000320: 87e3 dfbc 89e8 8bbe 0cce 88bd 030c 633e
00000330: b3f6 413e e00c 15bd 8c0b b93e a5e6 49bd
00000340: acc6 1cbd 14b7 01bd ae09 d9bd 9ee1 1e3e
00000350: 5729 3e3d b24e 683e 91fa 18bd 674d 14be
00000360: 2ec2 efbd 613e 0f3d 1c6c 9f3d 78df 663c
00000370: 310d 333e 6b74 50bd 69f3 94bd dd65 0e3e
00000380: a175 98bb 415a f0bc 10b2 01bf b3dc f9bd
00000390: e7ec 633e 4d24 f5be e7bf c33d df31 7c3e
000003a0: e45a 44bd 1e75 78be 1161 a93c 78f0 563d
000003b0: d608 163e c7ba db3d c535 3a3f 5da4 fab8
000003c0: 4cb1 b8bd ba70 b43d d790 033e 5e14 aa3e
000003d0: 1067 7fbe 77d0 c9be 8bfa 58be 8d11 acbc
000003e0: 6e8d d4bc c222 c0ba 114d e9bc 6d2e 03bd
000003f0: 855d b4bb b2fc 45be a1f2 09be 66aa b2be
-0.108904414 -0.044005055 -0.11962366 -0.6225072 -0.21195114 -0.3293168 -0.35283202 -0.3793415
-0.35152417 -0.27096492 -0.055670716 -0.34254834 -0.31461823 -0.42147425 -0.15059733 -0.7311232
-0.4291753 -0.15822095 -0.21463838 -0.32504594 -0.20891266 -0.1934796 -0.08880587 -0.2256952
-0.28160533 0.005047701 0.01707503 -0.32128918 -0.328997 -0.3282806 -0.20438276 -0.3558516
-0.28681326 -0.3342639 -0.41261297 -0.36434639 -0.11271948 -0.21654178 0.09357406 -0.18168591
-0.52695954 -0.3549675 -0.4506257 -0.6249411 -0.22619067 -0.62522054 -0.39334556 -0.19509241
-0.14029926 -0.4396708 0.19987407 -0.24701156 -0.1225751 -0.32836157 -0.13279988 -0.24099182
-0.20950294 -0.3921005 -0.27583018 -0.42753562 -0.116807185 -0.51435035 -0.37511075 -0.39658478
-0.30576393 -0.37467733 -0.18891218 -0.64821255 -0.21821363 -0.14763553 -0.21518612 -0.24836779
-0.38851786 -0.25806245 -0.3425743 -0.44831097 0.027925545 -0.57266784 -0.24213332 -0.047883596
-0.3084249 -0.540938 -0.16020231 -0.38209748 -0.28567475 -0.33109057 -0.64411616 -0.14585395
-0.10347902 -0.27798268 -0.4581512 0.074996196 -0.3685951 -0.22943576 -0.2140104 -0.30817744
-0.17985877 -0.30461738 -0.46225265 -0.38026154 0.13451608 1.3778714 0.36967295 -0.15012616
1.0934583 0.78918105 0.17697534 0.71193 0.44076887 1.5745507 -0.1383634 1.8489966
0.32923877 -1.029119 0.22964045 0.07035136 0.65945643 -0.38614786 1.3370726 0.9888768
0.38722494 0.34396443 -0.536356 1.454847 1.3906109 -0.098173276 -0.5387129 0.6400305
0.871119 0.46542656 0.23724814 0.47892728 0.40383264 0.07455684 -0.21538278 1.1692635
0.20409885 1.2711685 -1.0015856 0.13142888 -0.40394583 1.1915319 0.09994165 -0.16526383
1.3333328 -0.19364682 0.542421 0.20684066 0.17980944 0.64836204 -0.50445944 1.5792311
-0.36497614 1.8928039 0.9939318 1.0363575 0.038267482 0.9241435 0.5136167 1.3942
0.5648595 -0.07642059 0.5755102 0.45026526 1.3137884 0.47381315 0.24472779 0.6314701
0.25676224 0.72567165 0.3071553 0.7745661 -2.0539088 0.1199974 0.19890302 0.53131515
0.15497763 -0.6942028 0.1138949 -0.27970603 0.33890536 0.74284244 0.42351222 0.41981137
-0.31653833 1.2135209 0.7003593 0.33736897 -0.42073327 0.3266871 0.9464244 -0.041435614
-0.5031034 -0.25126258 1.5287784 0.92240036 0.14860505 0.3968796 0.48730767 0.60642445
-0.027330173 -0.27325848 -0.06679925 0.22172551 0.18941765 -0.03638923 0.36141622 -0.049292225
-0.038275406 -0.031668738 -0.105975494 0.15515754 0.046426143 0.2268627 -0.037348334 -0.14482652
-0.11706959 0.0349716 0.07784292 0.014091365 0.17485501 -0.050892275 -0.07272989 0.13906045
-0.0046526943 -0.029339911 -0.50662327 -0.12200298 0.2225834 -0.47879258 0.09558087 0.246284
-0.047938243 -0.24263427 0.020676168 0.052475423 0.14651808 0.10728984 0.72738296 -0.00011951544
-0.09018192 0.088105634 0.12848221 0.33218664 -0.24941659 -0.3941686 -0.21189325 -0.021004463
-0.025946345 -0.0014658796 -0.028479131 -0.032026697 -0.0055043125 -0.19334677 -0.13471462 -0.3489563
